Previous work run/CORL/models/l2i_evo/random_evo_start_20hr.ckpt (torch, 139087 bytes, 26 tensors)

weight f4 [64, 11, 1]
00000000: b125 2cbd 6737 c0be 4de6 c33e afa3 66be
00000010: e55e 1e3c c909 15be 6cfb 69bd f13b 55be
00000020: be62 9bbd bdfb 35ba 24e7 f53d b09f ed3d
00000030: f97c c93d 57b0 423d 7de5 693e 9ff3 ca3d
00000040: d292 3dbb b74d bfbd fe16 4d3d c611 8d3e
00000050: 323f 89bd 4e1f cfbc 0313 d43b 7085 b6bd
00000060: 42c9 6dbe 05c8 0c3f c766 7bbe bf3c 23be
00000070: 90ee e73c 95af 4ebe ba33 323b f236 c73c
00000080: 029f 4fbe 9686 cf3d b479 793d a5e3 0bbe
00000090: c455 2dbe 29ef 77bd e3a8 1cbe 84ac bfbd
000000a0: be5e 78be 89e3 b33d 18ce 263d 6c79 b3bc
000000b0: fbe4 563e 0e3f 42bd 7d03 0dbe 5951 bd3e
000000c0: a89f 1c3e 90ed 78be 9f81 213d 243a 26be
000000d0: beca df3c 23b7 2d3e 0ca3 83be 8ee9 dc3d
000000e0: bf30 c63e 4d42 363d 4863 713e 9bb9 f73d
000000f0: be56 383e f64e 913d 022b 0d3d fcf5 c13d
00000100: 7b9f bbbd f9d5 6d3e 6274 ddbd 627f 54be
00000110: ea19 55bd e3bb 5dbd e4c9 30be 89eb 1c3e
00000120: ad38 e83e 2c09 533d 5042 a33d bdf8 e13d
00000130: 4804 ee3d ff87 e53d 5af7 a7bd 0db6 13be
00000140: c999 773c dcd4 60be 8e0c 9c3d 179c 4cbe
00000150: 22ac 813d a147 c13d 8263 47bd 54ac 3fbd
00000160: 1d13 223e 354e c5bb 664a 8ebd d42a 433d
00000170: 42e0 d73c 42f4 a7be 5407 bfbd 6314 af3d
00000180: bedd 803d 10b8 5dbe 320c b83c e262 9f3e
00000190: a3f4 a63d ccc0 bb3c 4706 0f3e e18d f63d
000001a0: 9ec1 183e 24c9 af3d cbba f63d b1af 9f3e
000001b0: c7d8 a6be afe4 acbd 5b79 c4bd a67d 153e
000001c0: 5f69 0e3d d2e8 d5be f506 89be 2f57 7abd
000001d0: 1d8f 54bc 5863 04be 8a14 98be b72d 233e
000001e0: e154 39be f462 11be ad84 a43e 548d 1b3e
000001f0: 9e95 35bd f8d9 dcbd 31eb b1be 855c d7be
00000200: e0fb e4bd 4788 bc3d 5583 e43d b464 0c3d
00000210: a83a 123d 0d36 8cbd 4dc4 483c 1a6c c1bd
00000220: 86f8 c8bc 271e 203e 3926 21be 74fc e0be
00000230: 07ff 7cbe 9d6a 563e 2a77 593e 38d6 823d
00000240: 4fb1 e43e 41f1 72be 5496 303d 4941 c8bc
00000250: 4d99 fbbd fe7e c73d 1153 9ebe 2594 3dbe
00000260: 2462 eb3c 8a67 13be b316 ef3d 993a 1e3e
00000270: e353 863d fdec f3bc c03b 123d c077 343d
00000280: 444d 233e 7a9b bf3d 002c 3d3e ebbe 0a3e
00000290: f722 4c3e 5971 c33e ee5a 21bc f5db c9bd
000002a0: ceee 0ebd 5db7 b0be a72c 96be 7141 a6bc
000002b0: 4ae6 b3bd 4c73 d63d 7ceb 2cbd 30de ff3c
000002c0: 4bc0 26be fc86 f4bc 6b3f 933e 897e 923d
000002d0: be3e 81bc 8e30 f63d 9439 b2bd d13e 963d
000002e0: ce37 1ebd b209 11be 8e7a bbbd b644 c0bc
000002f0: e4e7 4dbe 3e71 14be 50e8 43be d839 aabe
00000300: 0b53 383e db25 cabd 3550 36be 5029 993e
00000310: f99b debc ea9a 1cbd 5255 2bbd 3a1c 233e
00000320: dc50 533e 7cd6 1c3c 1ff8 e03d 1d68 26be
00000330: 36d0 bb3d 955b 123e ee4a 9a3b 15f2 f7bd
00000340: ef7d b33c bb84 1dbe 6c87 68bd 3802 813d
00000350: a715 b8bc ed01 41be 852e e63d a4f9 e23d
00000360: c5cc 3cbe ab2c 1d3d af2c d03d 1700 a63d
00000370: 4775 76bd 5d31 98bd dfe6 9dbd 35ed e5bd
00000380: a1ac f1be e58e 5bbe 12e5 4dbe 4162 933e
00000390: 1c14 9b3e eac9 2f3e 178a 793b d1dc 2cbe
000003a0: 8f85 973b a310 a1be 3497 b63a 198b 61bd
000003b0: 0c92 61bd 96db da3d 04bc b43d 8b6d 74be
000003c0: 39e4 a83b 6493 61bc 8d37 9bbe abf4 713c
000003d0: 0a4a 94bd 86b4 cf3d 8677 9f3e b199 ddbe
000003e0: 55c5 b9bd 3b30 1cbe 9140 cf3d b8e9 d73e
000003f0: ac28 223e b333 bfbe 1a80 673c 5be3 b23e
-0.042028133 -0.3754227 0.38261643 -0.22523378 0.009666179 -0.14554514 -0.05712454 -0.20823647
-0.07587193 -0.0006942114 0.12006977 0.116027236 0.0983829 0.047531452 0.22841449 0.09909748
-0.0028926623 -0.09340995 0.050070755 0.27552623 -0.06701507 -0.025283482 0.006471993 -0.0891217
-0.23221305 0.54992706 -0.24550925 -0.15941142 0.028311998 -0.20184167 0.0027191476 0.024318192
-0.202755 0.10133092 0.06090708 -0.13661058 -0.16927248 -0.060530815 -0.152988 -0.093590766
-0.24254891 0.08783633 0.04072389 -0.021908484 0.20985787 -0.047423415 -0.13770862 0.36976126
0.15295279 -0.24309373 0.039430257 -0.16233116 0.027318355 0.16964392 -0.25710332 0.107867345
0.38709065 0.044496823 0.23573029 0.12095948 0.1800184 0.07095139 0.034464844 0.09470746
-0.09161278 0.23226155 -0.10813214 -0.20751718 -0.052026667 -0.05413426 -0.17264515 0.15324225
0.4535574 0.05152242 0.079716325 0.11033771 0.1162191 0.1120758 -0.082014754 -0.14424916
0.015112349 -0.219562 0.07619582 -0.19981419 0.0633166 0.0943749 -0.048678882 -0.046795204
0.15827604 -0.006021286 -0.06947784 0.047648266 0.026352052 -0.3280354 -0.093275696 0.0854881
0.06292294 -0.21652246 0.022466753 0.3113013 0.081521295 0.022919081 0.13967238 0.1203878
0.14917609 0.085832864 0.12047347 0.3118873 -0.32587263 -0.084420554 -0.09593459 0.14598712
0.03476846 -0.4177919 -0.2676312 -0.0611183 -0.012973574 -0.12928522 -0.2970317 0.15935408
-0.18098785 -0.14197904 0.32132474 0.15190631 -0.04433214 -0.10783762 -0.3474975 -0.42062774
-0.11180854 0.0920568 0.11157862 0.034275725 0.03570047 -0.06846247 0.012253833 -0.09444447
-0.024532568 0.15636502 -0.15737237 -0.43942606 -0.2470666 0.20939107 0.21236864 0.06388515
0.44666526 -0.23724844 0.043112114 -0.024445193 -0.12285099 0.09741019 -0.3092275 -0.18513544
0.02873332 -0.14394966 0.116742514 0.1545204 0.06558969 -0.02977609 0.035701513 0.044059515
0.15947443 0.09355827 0.18473816 0.13549392 0.19935213 0.38172415 -0.0098483395 -0.098564066
-0.03489571 -0.34514895 -0.29330942 -0.020294877 -0.087841585 0.1047121 -0.042216763 0.031233877
-0.16284291 -0.029849522 0.28759322 0.07153041 -0.015776988 0.1202098 -0.087023884 0.073362
-0.03862744 -0.14163855 -0.09154235 -0.023470264 -0.2010799 -0.14496323 -0.19131589 -0.33247256
0.18000428 -0.098705016 -0.17804034 0.2991433 -0.027173983 -0.038233675 -0.041829415 0.15928736
0.20636314 0.009572621 0.10984825 -0.16250654 0.091705725 0.14292748 0.0047086393 -0.1210672
0.021910636 -0.15382664 -0.056769773 0.06299251 -0.022471262 -0.18848391 0.11239342 0.110827714
-0.18437488 0.038372677 0.10164773 0.08105486 -0.06017044 -0.0743129 -0.07710051 -0.11226884
-0.47202018 -0.21441229 -0.20106915 0.287859 0.3028878 0.17166868 0.0038076693 -0.1688111
0.0046240757 -0.31458005 0.001393056 -0.055064294 -0.05507092 0.10686414 0.08824924 -0.23869912
0.0051541594 -0.013768051 -0.3031582 0.014767806 -0.07240684 0.10141854 0.31145877 -0.4328132
-0.09070841 -0.15252773 0.10119737 0.421705 0.15835828 -0.3734413 0.014129663 0.34939083

bias f4 [64]
00000000: cf58 753e 55c5 fcbd b3af 7c3e c009 81be
00000010: 735b 97be a68a cbbb ff38 98be f595 b9bd
00000020: ed1c 1ebe 7357 8e3e 805f 1f3d b874 91be
00000030: 1e3c df3d 3132 6ebe 54ef 0c3e 1ce6 02be
00000040: bb15 3ebe 9a20 363e e0be 72be f951 333e
00000050: bf81 84bd 1567 933e 4ca7 8cbe 22a8 cebd
00000060: 7115 80be 13bc c43d f1d5 933c 9227 df3d
00000070: f0d5 0dbe a7d5 3ebe 53ae dbbc 178c 55be
00000080: 8dab 973e fb16 b03d b555 86be ef30 173e
00000090: de94 413e d5ba 873e ff4c e6bb 00ff 2abe
000000a0: ce5f 69be 6f70 8e3e b001 253e 83aa eb3c
000000b0: a40f 573e 57b6 23be 0969 37be 5118 683e
000000c0: 23bb d93d 0dbb a53d ca37 8c3e 02d3 943e
000000d0: 0856 fa3d dd37 8fbe 3429 633d 3db8 b9bc
000000e0: 75cf 2bbe 963c 1dbe c7c1 913d 4c2b 87be
000000f0: 282d fa3d a180 19be 9272 65be da64 e0bd
0.23959659 -0.123423256 0.24676399 -0.2520275 -0.29561958 -0.0062115965 -0.29730985 -0.09061805
-0.15440722 0.27801093 0.038909435 -0.28409362 0.10900138 -0.23261334 0.13763171 -0.12783092
-0.18562977 0.17785874 -0.23705626 0.17511739 -0.064700596 0.28789583 -0.27471387 -0.100906625
-0.25016358 0.09606185 0.018046351 0.10896219 -0.13851142 -0.1863619 -0.026816523 -0.20854221
0.2962307 0.08598133 -0.26237264 0.1476476 0.18904445 0.2650973 -0.0070282216 -0.16698837
-0.22790453 0.27820155 0.16113925 0.02876783 0.2100206 -0.15987526 -0.17911161 0.22665526
0.106313966 0.08092318 0.27386314 0.29067236 0.122234404 -0.27972308 0.055459216 -0.02267086
-0.16778357 -0.15355143 0.07117038 -0.2640022 0.12215644 -0.14990474 -0.22406986 -0.10956736

weight f4 [64]
00000000: b729 803f 10b6 7f3f 6248 7f3f f593 7f3f
00000010: a4f6 7f3f 0cd2 7f3f a7b0 7f3f 2d26 803f
00000020: dd0f 803f d640 803f afe0 7f3f b385 7f3f
00000030: 960e 803f 5bb9 7f3f 8287 7f3f a0ab 7f3f
00000040: f140 803f 1823 803f 6b26 7f3f 907a 7f3f
00000050: c728 803f ce30 803f 6b67 803f 690a 803f
00000060: 8b65 7f3f a1be 7f3f a21f 803f 9456 7f3f
00000070: db36 803f ec41 803f 94f7 7f3f 9b0d 803f
00000080: 50d9 7f3f 69f4 7f3f 2506 803f a251 803f
00000090: 6513 803f e92a 7f3f bcfa 7f3f 88ea 7f3f
000000a0: 67c2 7f3f ac79 7f3f 35e8 7f3f 6212 803f
000000b0: 3c63 7f3f 83a9 7f3f d43b 803f 5bf0 7f3f
000000c0: 79df 7f3f d056 803f 81a6 7f3f 3f1a 803f
000000d0: 73fe 7f3f f625 803f 7e03 803f dde6 7f3f
000000e0: dd1a 803f 3037 803f 3218 803f 64e3 7f3f
000000f0: e427 803f dd09 803f 4e15 803f 11b5 7f3f
1.001273 0.9988718 0.9971982 0.9983514 0.9998572 0.9992988 0.99878925 1.001165
1.0004841 1.0019786 0.99952215 0.99813384 1.0004451 0.99892205 0.99816144 0.99871254
1.0019819 1.001071 0.99667996 0.9979639 1.0012444 1.0014894 1.0031561 1.0003177
0.9976432 0.9990025 1.0009654 0.9974148 1.001674 1.0020118 0.9998715 1.0004152
0.9994097 0.99982315 1.0001875 1.0024912 1.0005919 0.9967485 0.99991965 0.9996724
0.9990601 0.9979503 0.99963695 1.000561 0.99760795 0.9986803 1.0018258 0.9997613
0.9995037 1.0026493 0.9986344 1.000801 0.99997634 1.0011585 1.0001066 0.99961644
1.0008198 1.0016842 1.0007384 0.99956346 1.0012174 1.000301 1.0006502 0.9988566

bias f4 [64]
00000000: ca10 18bb ae4d 9a3a 885a 06bb f9c9 36bb
00000010: 635a 2abb cc15 253b e780 ae3a b404 afba
00000020: 8d6d 93ba 484c 2eba 0060 973a 588b b0b9
00000030: dc2b 6639 35bc 3c3a fd2f 753a 6a5d 25ba
00000040: 474a 52bb e207 e2ba f291 be3a 4887 093a
00000050: 26b5 91ba ccf7 773a 3a4f f73a d1f6 24ba
00000060: 716e fc39 9bd5 26b9 fa33 19ba 362e 30ba
00000070: f9b4 c339 6b90 e1b9 f255 22bb e6e2 61ba
00000080: ee3f f9ba f0c8 9fba 5579 883a 020f 80ba
00000090: f82f c6b8 1c66 3ebb 5423 9738 3019 e83a
000000a0: c5fa 9f3a 8115 663a ffc1 003a e54a 02bb
000000b0: 6013 f0ba c700 0b3a c025 c5ba a81c d339
000000c0: 7db7 41bb cab9 efb9 eb41 d9b9 9851 60b9
000000d0: 9e76 b6b9 bc8d 64ba 6c77 bbba 3bbb 0639
000000e0: 1c2c 4638 f91f 8b3a 0f48 82ba 181a 83b8
000000f0: 7b53 1cbb 21cb 6b3a 6b6d efba 581d 6939
-0.0023203366 0.0011772418 -0.0020500738 -0.0027891381 -0.0025993816 0.0025189994 0.0013313562 -0.0013352842
-0.0011247859 -0.000664894 0.0011548996 -0.00033673155 0.00021950848 0.0007199676 0.0009353159 -0.000630817
-0.003208773 -0.0017244781 0.0014539345 0.0005246294 -0.0011116609 0.0009459227 0.0018868216 -0.0006292882
0.0004814747 -0.00015910568 -0.0005844232 -0.0006720753 0.00037328133 -0.00043022944 -0.0024770466 -0.00086168793
-0.0019016245 -0.0012190621 0.0010412136 -0.0009770098 -9.4503106e-05 -0.002905256 7.2068215e-05 0.0017707702
0.0012205472 0.0008777008 0.000491172 -0.0019881066 -0.0018316321 0.0005302545 -0.0015041158 0.00040266407
-0.002955883 -0.00045724056 -0.00041438578 -0.00021392701 -0.00034802122 -0.000871863 -0.0014302558 0.00012848985
4.724796e-05 0.0010614387 -0.0009939688 -6.251427e-05 -0.002385347 0.0008994807 -0.0018266862 0.00022231543

running_mean f4 [64]
00000000: b1e5 43bf de1a 963f 92c5 9b3f 60c0 f1be
00000010: bd16 c33f ece3 d13f 37ba 52bf 5959 7a3e
00000020: f137 143f c457 2140 6a82 dcbf fb28 afbf
00000030: a2df 32be e9d0 fe3d 27ed 843f 6715 a93f
00000040: b8d1 3fbf 7a08 4fbf 894f 27be 9008 34bf
00000050: 2222 80bf ff5e 3bbf 3dc5 d9bf 983e 8fbf
00000060: 8384 edbd f82d 4fbf 4969 173f 23e1 fa3f
00000070: 724b 11bc 011d 7abf 70e7 7bbf e782 bdbe
00000080: 89e7 3c3f d389 91bf 79eb f0be 8483 0d40
00000090: b4ff 81be 19e1 873e 7995 22bf c774 b6bf
000000a0: 3738 84bf 2fd3 de3f 953f bf3f d2f0 53be
000000b0: 0f99 003f f2bc 83bf da7a a33e 72a5 d2bd
000000c0: fb3a 0940 f51e 4c3d 102f b63f 042a 233d
000000d0: c09b c0be ca03 e2bf 7186 90bf 27dc c4bf
000000e0: 6764 06be 25cd fbbe a93a 26bf be66 653f
000000f0: 3bca bbbf 134f 7fbf 6d44 1640 cc49 2abf
-0.76522356 1.1726949 1.2169669 -0.47217083 1.5241314 1.6397681 -0.8231539 0.24448146
0.5789786 2.5209818 -1.7227299 -1.3684381 -0.17468122 0.1244219 1.0384873 1.3209656
-0.7492938 -0.8087231 -0.16338934 -0.70325565 -1.0010417 -0.7319183 -1.7013317 -1.1190977
-0.1159754 -0.8092952 0.5914503 1.9599956 -0.008868085 -0.97700506 -0.9840002 -0.37013933
0.73790795 -1.1370186 -0.4705465 2.211152 -0.25390399 0.26538923 -0.6350933 -1.4254388
-1.0329655 1.7408198 1.4941279 -0.20697334 0.5023355 -1.0292037 0.31929666 -0.102854624
2.144225 0.04983421 1.4233112 0.03983499 -0.37618828 -1.7657406 -1.1291028 -1.5379685
-0.13124238 -0.4917995 -0.6493326 0.896099 -1.4671091 -0.9973003 2.3479264 -0.66518855

running_var f4 [64]
00000000: 79bf 793f c923 843f c3f9 a540 0ddf 0f3f
00000010: 46c3 3540 fcf5 903f 9ca4 103e 0275 e83d
00000020: 4fb0 733e 8d17 7f3f bc00 4140 29a7 333e
00000030: ac2b 503e 0622 2d3e eedb ea3d 9432 8b3f
00000040: 2b23 973e b6bd 3b3f f8f0 153d d87a 2a3e
00000050: 5577 ae3e 248e 4d3e 6d7a 553f d6cc 6f40
00000060: 59f3 893e b2d6 443f 2623 ac3e 7500 ee3f
00000070: e7a9 da3e 9da0 cc3e fd7f 6a3e 62b7 733f
00000080: 4b67 773f c790 723f 345e aa3d 66b2 6240
00000090: 9849 8b3f 9540 a43f d071 3e3f 44e4 c33e
000000a0: 1ce8 9a3d 9383 853e 1e41 1f3f 2605 4d3e
000000b0: f6dd 593f 998a 9a3f ba66 2d3f dc69 183d
000000c0: cbff 0640 c0f3 993f 83b7 f23e 4661 163d
000000d0: 9b85 5c40 e1e1 3d40 689d e93e 2a86 aa3f
000000e0: 6a0d 653d df0f 3540 75f4 0d3e fc6c f63e
000000f0: 1cc4 1d3f 4f72 d03e c4ab e33f 099b 9c3d
0.9755779 1.0323421 5.1867385 0.56199723 2.8400435 1.1325068 0.14125293 0.113504425
0.23797725 0.9964531 3.0156698 0.17544235 0.2032916 0.1690751 0.114677295 1.087481
0.2951902 0.7333635 0.03660676 0.16648424 0.34075418 0.20073754 0.8338993 3.7468772
0.26943472 0.768901 0.33620566 1.859389 0.4270775 0.39966288 0.22900386 0.95201695
0.9664199 0.9475216 0.08318749 3.5421386 1.0881834 1.2832209 0.74392414 0.3826009
0.075638026 0.26076946 0.62208736 0.20021495 0.8510431 1.2073547 0.67734873 0.03721033
2.1093624 1.2027512 0.47405633 0.03671386 3.4456546 2.9669116 0.45627904 1.3322194
0.055920996 2.8290937 0.13862784 0.48130023 0.61627364 0.4071221 1.7786794 0.07646758

in_proj_weight f4 [192, 64]
00000000: afb8 6bbd 8dd1 91bc dbfe 02be fac7 c93d
00000010: d3c8 0cbe 2be6 e63d cf0e 21bb 1e02 423d
00000020: c67a d2bd 8508 c1bd 50db febd 4ba2 7dbd
00000030: 99c7 18be ad6c 993d 4fab 003a e03d 753d
00000040: 0bb9 f0bd 0278 913b cd8f f6bd ad0d a9bd
00000050: 8fba 823d 2e55 afbd c0d6 51bd e9a4 4ebb
00000060: c2d8 103d ca62 fd3d fa73 fdbd 5d99 d93c
00000070: ff26 c1bd f346 e83d f00a 04be f082 e13d
00000080: 2268 07be c8df 13be feee d03c aa78 b6bc
00000090: 7274 1b3e df2e b13d 5ef5 db3d a76c 763d
000000a0: 7849 79bc 4b02 35bd 6fcc 233d 8167 9e3d
000000b0: d41c 12be 312e 37bd 1f67 f1bd c505 253d
000000c0: 635b d73d 4986 283d 6fc4 2c3d 2cce 033e
000000d0: 957b 473d 8201 6d3d a36c cf3b 3402 bcbd
000000e0: 5ef0 433d efb6 b03d 8c01 0a3e 03ee cfbc
000000f0: f5d1 3f3c 3003 49bd 2c90 91bd 19eb 11be
00000100: fcfa 8bbc df85 833d 4d7c 47bd bae1 bd3d
00000110: 4b3c c13d 5398 d63d 80ff cfbd d069 fdbd
00000120: 25d2 663d 1b19 debd d475 85bd 84bb 03be
00000130: 59c5 59bd 9f8a 1a3c d892 c3bc 9944 523d
00000140: 0fcf d03d 55fe d83d 4995 04be 5be3 17be
00000150: 4a02 d1bd 9d21 21bd 91e3 053e 7d9c 393d
00000160: b0cb bfbc 8e1c 08bd 75c8 913c 9d3c c4bd
00000170: 00ae be3d 4a3b f73c 2dd4 66bd 1a2f 0db9
00000180: 1f1c 70bd dd89 d4bb b91a 88bc 49f7 003e
00000190: 0093 b7bd 6b4b 193d f798 503d 65db 0ebe
000001a0: 8389 c2bd 6503 5e3d 0ca0 8ebd 689f f13d
000001b0: 05dc 983d 20db f2bd 899d c0bd d238 c8bc
000001c0: 8fe6 a1bd 207b 90bd 5332 bbbd 58d7 10be
000001d0: d936 703d b78b e0bc 5b76 413d 0150 e9bd
000001e0: e32e 5a3d 48eb 133e 30f2 2ebc 9dc7 ac3d
000001f0: 122c 27bd cc25 2c3b f0e3 09be 618b eabd
00000200: c6e4 013e 72d5 d1bd d757 7cbd a578 9abd
00000210: 48ff 7d3d 4568 653d 2312 c0bd e924 793b
00000220: d4d4 18be d22f cf3d 4cc9 073e 30bc 183e
00000230: 39e3 3a3d 30c5 5a3d 1d22 143e 2e04 103e
00000240: e10d 13be 0084 c8bd e7ff 03be 97dd 2f3d
00000250: 3c28 0b3e 37db b23c 342b b2bd 93b1 0fbe
00000260: 0afa a4bd 643c 94bc 782b ae3d b2bd 8c3c
00000270: b78c 3a3c 087f 04be d7f1 22bd 5e2b 15bd
00000280: ebd0 013c d80a 2f3d 295b 5bbc 7c47 023e
00000290: a16d c93c 0245 923d da9c 003e 9fe4 163e
000002a0: d100 93ba a0d2 0dbc eb54 e63d fb77 babd
000002b0: c53a 033e 0437 2b3d e3d4 75bd f5b3 77bd
000002c0: bc43 b13c 979b 143e 275b 4f3d 4972 ce3d
000002d0: 3c13 0dbe dbd0 ce3d a5e5 ebbd 04bf da3d
000002e0: 87c7 e33d 65a2 763d 6985 e53d e464 aa3d
000002f0: 84a1 e7bd 90af f53d 9e0e ed3d 569a 04be
00000300: 21a4 113e f014 90bc 6453 5a3d be5c 93bc
00000310: 31bd cdbd 29bc dabd 7117 a93d 2290 8abd
00000320: 0945 ff3d 075b f63d 2a08 29bd 55a5 6abc
00000330: ce04 daba c7d9 933d f211 65bd 4c8a 79bc
00000340: cf5d 5ebc 905d adbc 878a c6bd 2ef0 87bd
00000350: 27a4 0dbe bad8 af3d 927a 573d 2481 0e3c
00000360: 89cb cdbd 0f52 02be 7f88 cf3d 56a0 c6bd
00000370: 0a33 403d 4250 ce3d 486a 06be cad3 143d
00000380: b523 93bd 626b 0c3e 8000 193d d038 b83d
00000390: 8649 dabd a276 15be 0849 e83d eb9f 05bd
000003a0: efdf 4abd 612b 11be 0179 dcbc 4b3c 663d
000003b0: 40bc 96bd a116 f93d 6517 af3d acf5 03be
000003c0: e5f8 1cbd 1192 3fbd 5425 9bbd c824 cc3d
000003d0: 90ac d9bc d647 2b3c 4ccd 13be 1b87 9dbd
000003e0: c8f2 973d 351c 833d bdc2 aa3d 7a6d d6bc
000003f0: 86e3 7fbc 9b2a d8bd c920 8a3b 3ebc 18be
-0.057549175 -0.017800117 -0.12792532 0.098525956 -0.13748483 0.1127437 -0.0024575477 0.0473653
-0.102773234 -0.09425453 -0.12444174 -0.061922353 -0.1491989 0.074914314 0.00049083395 0.05987346
-0.11754044 0.004439355 -0.120391466 -0.082545616 0.063832395 -0.085611686 -0.051230192 -0.00315314
0.035362966 0.12372358 -0.123756364 0.026562387 -0.09431266 0.113416575 -0.12894797 0.110113025
-0.13223317 -0.14440835 0.025504585 -0.022274334 0.15181139 0.08651518 0.107401595 0.060162213
-0.01521527 -0.04419164 0.039989885 0.077345856 -0.1426881 -0.044721786 -0.11787247 0.040288705
0.105154775 0.04114369 0.04217952 0.12871617 0.04870184 0.057862766 0.006330089 -0.09180108
0.047836654 0.08628642 0.13477153 -0.025382048 0.0117077725 -0.049075305 -0.07107577 -0.14249839
-0.017087452 0.06422018 -0.048702527 0.092715696 0.09435328 0.10478272 -0.10156155 -0.12373698
0.056352753 -0.10844632 -0.065166146 -0.128645 -0.05316672 0.009432464 -0.023873731 0.05133495
0.10195743 0.10595385 -0.12947573 -0.14832823 -0.10205515 -0.039338697 0.13075091 0.045315254
-0.023412555 -0.033230357 0.01779578 -0.095818736 0.093105316 0.030179638 -0.05635469 -0.00013464355
-0.05862057 -0.006486161 -0.016614305 0.12594332 -0.08963585 0.03742544 0.05092713 -0.1395088
-0.094988845 0.054202456 -0.0696412 0.117979825 0.074638404 -0.11858201 -0.094050474 -0.024441157
-0.07905304 -0.07054734 -0.09140458 -0.14144647 0.058646057 -0.027410371 0.047232013 -0.11392213
0.05326737 0.14445221 -0.010677859 0.08436511 -0.040813513 0.0026267646 -0.13465858 -0.11452366
0.12684926 -0.102457896 -0.061607208 -0.07542542 0.062011033 0.056007642 -0.09378459 0.0038016385
-0.14924937 0.10116543 0.13260382 0.14915538 0.045626853 0.05341071 0.14466138 0.14064094
-0.14360763 -0.09790802 -0.12890588 0.042935934 0.13589567 0.021833045 -0.086996466 -0.14032583
-0.08055504 -0.018095203 0.08504385 0.017180298 0.011386088 -0.12939084 -0.039781418 -0.03641831
0.007923345 0.04273495 -0.0133884335 0.12722582 0.024588408 0.071420684 0.12559834 0.1473565
-0.0011215453 -0.008656174 0.112466656 -0.09104916 0.12815388 0.041800514 -0.060017478 -0.060474355
0.021638744 0.14512478 0.05062404 0.10080392 -0.13776869 0.1009843 -0.115184106 0.106809646
0.11122041 0.060213465 0.112070866 0.083200246 -0.113101035 0.119963765 0.11575054 -0.129495
0.14222766 -0.017588109 0.053302184 -0.017988559 -0.10045851 -0.1068042 0.08256424 -0.067657724
0.12464339 0.12029081 -0.04126755 -0.014321645 -0.0016633512 0.07219272 -0.055925317 -0.015230726
-0.01357217 -0.021162778 -0.09694391 -0.066376075 -0.1383215 0.08586259 0.052607127 0.008697782
-0.10048587 -0.12726615 0.101334564 -0.096985504 0.046923675 0.10073902 -0.1312648 0.03633479
-0.07184545 0.13712838 0.037353992 0.08995211 -0.10658555 -0.14596036 0.113420546 -0.032623213
-0.049529966 -0.14176704 -0.026913168 0.056209844 -0.073601246 0.12162519 0.08549384 -0.12886685
-0.0383233 -0.04677016 -0.07575479 0.09967953 -0.026571542 0.010454139 -0.14433783 -0.07691785
0.07419354 0.064018644 0.08337925 -0.02617525 -0.015618211 -0.10555001 0.004215334 -0.14915559

in_proj_bias f4 [192]
00000000: abf0 d13a 4f36 dbba d693 54ba b68a 4a3a
00000010: b706 273a f37d 04ba 85c4 0eba d9f8 c5ba
00000020: 894f 343a 9917 baba 8371 1c3b 90b8 1dbb
00000030: 4b54 403b 8c2b 9d3a 0498 16bb 8aaf 6d39
00000040: 51b5 0f3a c82a 323a c340 dbba 22a0 cf3a
00000050: c23b 92b9 9e83 b9b8 a271 05bb afd0 003b
00000060: 3f56 20bb e47e ca38 db8f ccb9 070e a1ba
00000070: 9027 983a 95cc 1339 3340 193a b8d1 7eba
00000080: 7b99 b4ba 0e09 e8ba c4e8 d33a 9bcf 883a
00000090: 2352 81ba 1f6e 123a 39ee 17bb 1fb2 34bb
000000a0: 64c3 8f3b 3a96 db3a 78b9 9bba 8763 5d39
000000b0: 6430 a4ba 794f a7b9 94bd 75b8 9ff8 aa3a
000000c0: 62ad d73a d5a5 963a a8f2 033b 4238 98b8
000000d0: 2ce3 3bba c33b 52bb c4c9 a63a 946a b33a
000000e0: 6a06 f8ba 6cb6 17ba b004 a43a 87e5 64b9
000000f0: 627e 353b 39ee 953a e57e a6b9 1a8e 69bb
00000100: a3b2 8b39 69b1 a2b8 a86a 1e3b adbb f03a
00000110: 869d 493b b21c 8c3a 4d9a c23a 7907 d239
00000120: 29ac a03a cc02 97bb c538 943a ec48 743a
00000130: 8938 9dba 309c 5fb6 076e d0ba 157e ad3a
00000140: 1f91 79b8 19fc 7cba 2d1b 9f3a 6e95 343b
00000150: f06a 403b a73f e139 94fb fa3a d121 8e3a
00000160: f934 b8ba d21f 863a da27 b13a fddc 18bb
00000170: 79f0 fe3a 3756 ba3a ef89 083b 14c1 0b3b
00000180: 04eb e938 d972 cc3a 1891 2e3b f471 7338
00000190: 28cf 8f39 6f26 aeb9 8cec fdba 5d45 bcba
000001a0: dc18 113a 2393 fdb9 afa9 c53a 888d 4e3a
000001b0: 746c 90ba 214c 6ab9 4c75 3eba fd55 f9ba
000001c0: 5b53 3d3a 1486 c3ba fb4f 0639 70d2 3eb9
000001d0: 1e43 023a dd96 88ba cef5 a4b9 0692 0b39
000001e0: 5ff8 09bb 2c1a 3838 9045 c6b6 ac44 2dba
000001f0: b92f 5d3a d1ae 49ba 5880 68b9 b809 6abb
00000200: 28bb 00b9 4d26 76ba fc8a 8937 ad63 4e39
00000210: e4a7 78b8 130a 02bb e26b 243b 5b6a 3d3b
00000220: 5ad5 313a 42b8 5e3b 53e9 99b9 95db 71bb
00000230: 7ae2 d639 81b6 73ba 8afc 1abb 09c6 efb9
00000240: 5005 4abb a019 703a 15c4 b2b9 70ef c5ba
00000250: ff8f 61ba b9f8 1bba 9155 113b 63cf 96ba
00000260: 1d0b 17bb 175b 5cba 984a 2a3a 8573 cdba
00000270: 984f 76ba 0514 1f3a 373e af39 9494 4d3a
00000280: 5a1b 7f3b 8673 ee39 5270 123a e8a2 0c3a
00000290: d3b8 bdba 00e8 c833 87c8 20bb a0d5 913a
000002a0: 47ae a4ba ab5b c5ba 5ae7 f43a 50b4 3e3a
000002b0: 917e 503a 7a0c dbba 1a07 25bb a473 9eba
000002c0: 0611 08b9 217f e539 7cff d63a 29e7 4aba
000002d0: 464e 17bb a7b0 b738 46cc 463a 708a aa3a
000002e0: 1dcd a73a f2fc ce3a 7469 47bb 2c97 68b9
000002f0: 9268 3aba 92d2 983a 0c0f c1b9 aa22 39bb
0.0016017159 -0.0016724559 -0.00081091875 0.0007726358 0.0006371545 -0.0005054168 -0.0005446154 -0.001510407
0.0006878307 -0.0014197706 0.002387137 -0.0024066307 0.0029347118 0.0011991127 -0.0022978792 0.00022667475
0.00054820353 0.0006796536 -0.0016727675 0.001584057 -0.00027891813 -8.846003e-05 -0.002036192 0.0019655635
-0.002446547 9.655746e-05 -0.00039017093 -0.0012287506 0.001160847 0.00014095225 0.0005846053 -0.00097205816
-0.0013778651 -0.0017702894 0.0016167392 0.0010437848 -0.0009866398 0.00055858673 -0.0023182763 -0.0027571989
0.004387306 0.0016753145 -0.0011880836 0.00021113279 -0.0012526629 -0.00031911934 -5.858911e-05 0.0013044066
0.001645487 0.0011493514 0.0020133648 -7.258404e-05 -0.0007167335 -0.0032079078 0.0012724926 0.0013688379
-0.001892281 -0.0005787376 0.0012513604 -0.0002182928 0.0027693738 0.0011438794 -0.0003175653 -0.0035637678
0.0002664524 -7.757807e-05 0.0024172459 0.0018366479 0.0030764057 0.0010689704 0.0014847011 0.0004005989
0.0012258339 -0.0046084877 0.0011308423 0.00093187275 -0.0011994998 -3.3320503e-06 -0.0015901931 0.0013236428
-5.950138e-05 -0.00096506026 0.0012138836 0.0027554887 0.0029360615 0.0004296277 0.0019148462 0.0010843818
-0.0014053873 0.0010232872 0.0013515905 -0.0023325079 0.0019450329 0.0014216368 0.0020834168 0.00213248
0.00011154081 0.0015598192 0.0026636776 5.8041842e-05 0.0002742943 -0.00033216501 -0.0019372865 -0.0014363934
0.00055350154 -0.00048365546 0.0015080477 0.0007879366 -0.001101865 -0.00022344339 -0.00072654034 -0.0019022819
0.0007222199 -0.0014917278 0.00012809031 -0.00018198206 0.00049691077 -0.0010420937 -0.00031463656 0.00013310471
-0.0021052582 4.3893393e-05 -5.908958e-06 -0.0006609659 0.0008437592 -0.0007693591 -0.00022173056 -0.003571136
-0.00012276752 -0.00093898625 1.6396392e-05 0.00019682823 -5.9284168e-05 -0.001984243 0.0025088717 0.0028902504
0.0006783806 0.0033984338 -0.00029356274 -0.0036904563 0.00040986 -0.00092969096 -0.002364906 -0.0004573318
-0.003082592 0.0009159092 -0.00034096898 -0.0015101265 -0.0008604526 -0.00059498433 0.0022176246 -0.0011505898
-0.0023047396 -0.00084059074 0.00064961007 -0.0015674686 -0.00093960157 0.0006068352 0.00033424955 0.0007842269
0.0038926215 0.0004548097 0.0005586195 0.0005364851 -0.0014474638 9.355426e-08 -0.0024533586 0.0011126287
-0.0012564146 -0.0015057226 0.0018684671 0.00072747935 0.000795343 -0.0016712092 -0.0025181235 -0.0012088907
-0.00012976312 0.00043773002 0.0016403045 -0.0007740134 -0.0023087426 8.759024e-05 0.00075835397 0.0013011228
0.0012802217 0.0015791936 -0.0030427845 -0.0002218156 -0.0007110919 0.0011659435 -0.0003682304 -0.002824942

weight f4 [64, 64]
00000000: 33dd 5abc 8a49 d3bd d4ae 24bd 4864 eabd
00000010: 6fca d93c eba8 d43d 463b a93d 55f5 e3bd
00000020: 0c86 5f3d 754d 6f3d 0cd1 b93d dcb3 d9bd
00000030: 72ef c5bd 65ef e03d 06ce 99bd 5886 b33d
00000040: 040c fabb 0edb 93bd 3b08 c6bd be71 4dbd
00000050: 61c6 47bc 8bf4 e0bd f8ad 843d c45d 16bd
00000060: 8f08 e7bc 387e bdbd a6f5 7abd ea9a af3d
00000070: 740f 5abc 7883 b8bd af67 bbbc 35db 59bd
00000080: 9202 8d3d efd0 873d ef24 94bd a99c 1dbd
00000090: 6a1a 0c3d 6275 1c3d 2b65 87bd 10f1 693d
000000a0: ca13 a73c f2b9 6cbd 9bae 3fbd a658 6fbd
000000b0: f51f 953d 0bd4 febc 40c1 26bd 2bc4 8abd
000000c0: 9133 b2ba 0cbd 9fbc 2eec 9d3c 6333 463d
000000d0: f3b0 19bc 537c 953d 34e2 013d 3d4e a53d
000000e0: 9cd6 403d 894a 883d 7ae3 3fbd 4a75 cfbd
000000f0: bd4f c23d 8f6f 8cbd ddbf 37bd db74 a33d
00000100: 6f0c 39bd bd50 eb3d f71c baba 54fe e73d
00000110: b472 e4bc f6b8 a43d 2fdc 483c 4e74 fa3d
00000120: cc8e b83c fd5c 2ebd 0279 f83d 7e48 853d
00000130: dbc6 ffbc c14d d43d 54e1 973d 0c15 8a3c
00000140: be93 75bd 03a8 8cbd 57df 82bc 123c 1b3d
00000150: cf79 65bc 9d85 a0bc 4830 963d cb04 bbbd
00000160: 55ae 6abc 31a0 ae3d d0cd 43bd 64b2 2d3d
00000170: 2268 a03d 5eac fabd 0047 303a a9d6 b33d
00000180: ec82 bbbd fffd 4a3b 83d5 b3bd 99c0 963c
00000190: 0d1e f8bd 10eb fa3d d4b3 943c dc81 f43d
000001a0: 5f8b c63d 69c1 dc3c 903d eb3d 8738 b93d
000001b0: 386c 80bd b0a2 d33c 8f34 88bd c504 d7bc
000001c0: e197 cf3d 5c2a 243d d0ab 013d 5013 c6bd
000001d0: d8ae cb3d 5c03 1dbc 27af c83c 0820 93bd
000001e0: e7e8 7e3d 3a1f e3bd fc4b 183c 77f3 28bd
000001f0: b9a1 27bb 7c4a d3bd 4ad8 a83d edd9 c1bd
00000200: 95bf 21bd aabd d1bd 5457 e23c 8c7d 923d
00000210: 0707 023d 31f3 bf3c 8e18 69bd 6717 b2bd
00000220: 7384 0b3d 916f 1a3d 5839 dbbd cbd7 f1bd
00000230: 20e4 853c 5dcf be3d 3e23 69bd 735f 943d
00000240: 13a5 dabd 4c35 fbbd 2432 a73d d6e3 5c3d
00000250: 9334 cfbd 2d13 e7bd 325f 1e3c 97c3 bebd
00000260: d1d9 aabd 3cd4 d83d 9b8d e93d 8dc7 9abd
00000270: 5dbf a33d ef00 2b3b e57d 443d b168 13bd
00000280: 3c12 90bd 9a42 073c c8b7 e53c 6fc4 0cbd
00000290: a8bc 51bc bf0b 0e3d 10b1 00be 7d14 0a3d
000002a0: c1d3 fbbd ddc0 2fbd f850 89bd c1c2 0b3d
000002b0: 945d 5dbd 1ed9 12bd ad29 06bd 8bde d63d
000002c0: 339b 0c3d f2fc a03c d520 49bc a499 31bd
000002d0: 5163 60bc 21bb 743d 9c72 44bd b5b7 32bd
000002e0: 7220 a1bd db44 483d 14e6 423d 72ef 7e3d
000002f0: b51a f3bd d250 833c a3db bc3a 084f d9bd
00000300: 0d9b ad3d 35ae 3fbd 0f2f b5bd 410f 8b3d
00000310: 4524 f9bd ab3d fc3d ad6b 77bd 8512 47bd
00000320: e400 c2bd 1a52 86bd bcf4 bd3d 2abc d5bd
00000330: 17e4 0ebd 2bdb 65bc ce9b 1a3d d67b 29bd
00000340: dd1d 553c 266c 8ebc 6671 5d3d 90d8 4bbc
00000350: 90a9 033b 2615 5bbd 7da2 923d 8f40 f33d
00000360: 52d6 303d 4130 ea3d a446 ccbc 91a8 d03d
00000370: d378 b23d 146c 89bc 1f69 c23d 02dd 09bc
00000380: c1b7 f8bd a609 3ebd 314b f5bc 2c6c b4bd
00000390: 6f2c bdbc 8197 673d ec19 9ebc 8f8a bcbd
000003a0: d895 703d 2097 09bd bcff cfbd 0f8e 15ba
000003b0: bbae 77bd bdb4 873d 15d5 78bd 15e7 38bc
000003c0: 3f8f 9c3d 4b32 fdbc a8b2 b5bd 08cb 0c3b
000003d0: 0450 a23d a4a3 e9bc bf4c 81bc 95ac 0abd
000003e0: d751 cfbd a23c cbbc c30c 4f3d bb33 ecbc
000003f0: fefe 3cbd 4163 a5bd ecfb eebd 45a2 b83d
-0.013358402 -0.10316761 -0.04020579 -0.114449084 0.026585786 0.10383781 0.08263259 -0.11130778
0.054571196 0.05842348 0.09073076 -0.106300086 -0.09664811 0.10983161 -0.07509999 0.087658584
-0.007630827 -0.07219516 -0.096695386 -0.0501573 -0.012193293 -0.10984143 0.064784944 -0.036710516
-0.028202323 -0.0925259 -0.061269425 0.085744694 -0.013309348 -0.09009451 -0.022876589 -0.053187568
0.06885256 0.06631648 -0.07233607 -0.03847948 0.034204878 0.038197882 -0.06611093 0.05711466
0.020395178 -0.05779452 -0.046797376 -0.05843415 0.07281486 -0.03110697 -0.04071164 -0.06775697
-0.001359569 -0.019499324 0.019277658 0.04838885 -0.009380567 0.072991036 0.031709865 0.080715634
0.047079667 0.066548415 -0.046847798 -0.10129793 0.09487865 -0.068572156 -0.04486071 0.07981273
-0.045177873 0.11490009 -0.0014199306 0.11327806 -0.027886726 0.08043091 0.012259527 0.122292146
0.022529028 -0.04256915 0.121324554 0.065079674 -0.031222751 0.10366393 0.07416025 0.016855739
-0.05995535 -0.06867983 -0.015975637 0.037899084 -0.014006092 -0.019594962 0.07333428 -0.091317736
-0.014323791 0.08526648 -0.0478037 0.042406455 0.07832362 -0.12239908 0.0006724447 0.087811776
-0.09155831 0.0030974147 -0.087809585 0.018402385 -0.12115107 0.12251866 0.018152155 0.11938831
0.09694552 0.026947694 0.114863515 0.09043985 -0.06270641 0.025834411 -0.0665065 -0.026247391
0.101363905 0.04007946 0.031657994 -0.09671652 0.09945458 -0.0095833205 0.024497582 -0.07183844
0.06223383 -0.1108994 0.00929546 -0.04124781 -0.0025578572 -0.10316941 0.08244379 -0.09465394
-0.039489347 -0.10241254 0.027629532 0.071528524 0.031744983 0.023431392 -0.056908183 -0.0869587
0.03406186 0.037704054 -0.10704297 -0.11808737 0.01634413 0.09316895 -0.056918375 0.07244768
-0.10676017 -0.12266025 0.081638604 0.05392822 -0.101174496 -0.11282954 0.009666251 -0.093146496
-0.083423264 0.105873555 0.11403962 -0.075575925 0.07995484 0.0026093086 0.047971625 -0.035988513
-0.07034728 0.008255625 0.028041735 -0.03436702 -0.012801327 0.03467917 -0.12567544 0.033710945
-0.12296248 -0.042908538 -0.06704897 0.03412128 -0.05404432 -0.03585159 -0.03275459 0.104916655
0.034327697 0.019651864 -0.012275894 -0.043359414 -0.013695554 0.059748773 -0.047960863 -0.043632228
-0.078675166 0.04889379 0.0475827 0.06224007 -0.11870328 0.016029749 0.0014408719 -0.10610777
0.08476839 -0.046796996 -0.08846866 0.06790019 -0.12165121 0.1231645 -0.060405422 -0.048601646
-0.09472826 -0.065586284 0.09275195 -0.1043628 -0.034885492 -0.0140293045 0.037746243 -0.041377865
0.013007608 -0.017385554 0.054063223 -0.012441769 0.002009008 -0.053486966 0.071598984 0.11877548
0.04317314 0.11434985 -0.024936028 0.101884015 0.08714452 -0.016775168 0.094927065 -0.008414509
-0.12144423 -0.04639592 -0.02994308 -0.08809695 -0.023092477 0.05654097 -0.01929947 -0.092061155
0.058736652 -0.03359139 -0.10156199 -0.00057050673 -0.06046937 0.0662627 -0.060750086 -0.011285563
0.076445095 -0.03090777 -0.088719666 0.002148332 0.07925418 -0.028520413 -0.015783666 -0.033855993
-0.101230316 -0.024809185 0.05054928 -0.02883326 -0.046141617 -0.08075572 -0.11669144 0.090153255

bias f4 [64]
00000000: 74e9 ce3a 8bc1 9bba 6e83 0cbb 3eb5 703a
00000010: 2e98 e3b9 8709 0b3a c9fd 18bb 83d4 753a
00000020: 5148 88bb 3685 2bbb f735 ed3a c020 2f3b
00000030: 323a 313b d413 ca3a ae87 2239 210d 293a
00000040: da4f 41ba 2b4b e83a aca1 73bb 8732 32bb
00000050: 6917 6c3b ec71 fab9 02fa 5bbb 7d0c a8ba
00000060: 9181 0d39 6fe6 d6b9 6dc7 703a cfcb ba39
00000070: 811b 86b9 e7b5 43bb c077 4cbb b984 41bb
00000080: ea1f 6b3a 44f1 52b8 743e f838 0c43 2d3b
00000090: 56a1 a5b9 5080 0d3b 9d5b a8ba f1bf 30bb
000000a0: 6ad6 643a 8a26 eab8 0951 2dba 28d5 dd38
000000b0: 0037 4739 c40c a8ba 5e0b 0439 7489 223b
000000c0: df7c ceba feff b039 843a f6ba fec4 55bb
000000d0: f1e5 1e3a dcf5 873a 1724 963a 023b b63a
000000e0: c912 52ba 5017 dfb9 26d0 b4ba d51a 16bb
000000f0: b0ce 19bb 661c 0db8 68be 4338 9cfe 90b9
0.0015786127 -0.0011883242 -0.0021440643 0.00091822806 -0.00043410197 0.0005303849 -0.0023344627 0.0009377675
-0.0041590114 -0.002617193 0.0018097748 0.0026722401 0.0027042744 0.0015417286 0.00015500069 0.0006448795
-0.00073742645 0.0017722597 -0.0037175221 -0.0027190761 0.0036024696 -0.00047768594 -0.0033565764 -0.0012821105
0.00013495075 -0.00040988947 0.000918499 0.00035628534 -0.00025578964 -0.002986306 -0.0031199306 -0.0029528572
0.0008969294 -5.0292598e-05 0.00011837194 0.0026437668 -0.00031591457 0.0021591373 -0.0012844686 -0.0026969875
0.000872946 -0.00011165168 -0.00066115014 0.00010577805 0.00018998608 -0.0012821187 0.00012592736 0.0024801167
-0.0015753767 0.00033760065 -0.001878575 -0.0032618637 0.00060614856 0.0010372954 0.0011454847 0.0013903084
-0.00080136635 -0.00042551244 -0.0013794943 -0.0022904177 -0.0023469143 -3.3643468e-05 4.6668953e-05 -0.0002765552

weight f4 [64]
00000000: 082a 803f 15ba 7f3f be23 803f f7c3 7f3f
00000010: 44f5 7f3f 35e2 7f3f 6339 803f 7a30 803f
00000020: f021 803f 2497 7f3f cd1b 803f f1df 7f3f
00000030: 23e1 7f3f db43 803f fb95 7f3f ffe4 7f3f
00000040: 123a 803f a722 803f 6554 7f3f c364 803f
00000050: bf11 803f c0ec 7f3f eb54 803f 039a 7f3f
00000060: eb23 803f 272a 803f 36e7 7f3f 1de3 7f3f
00000070: e807 803f 1a34 803f 3d1c 803f b1f8 7f3f
00000080: fab1 7f3f 9f1d 803f c94d 803f 3e1d 803f
00000090: 62e5 7f3f ce99 7f3f f3c2 7f3f 421e 803f
000000a0: 4b3b 803f 8cc8 7f3f 81a8 7f3f 1b24 803f
000000b0: 953b 803f b205 803f ce07 803f 39da 7f3f
000000c0: 0fa3 7f3f 7dda 7f3f 738e 7f3f 4dee 7f3f
000000d0: 260f 803f 941b 803f 9cc5 7f3f 7c4c 803f
000000e0: a738 803f 03e5 7f3f df30 803f 2560 7f3f
000000f0: bcad 7f3f 591e 803f 8023 803f d50d 803f
1.0012827 0.99893314 1.0010908 0.99908394 0.9998362 0.9995454 1.0017513 1.0014794
1.0010357 0.9984 1.0008484 0.9995108 0.99952906 1.0020708 0.9983823 0.99958795
1.0017722 1.0010575 0.9973815 1.003075 1.0005416 0.99970627 1.0025915 0.9984438
1.0010961 1.0012864 0.99962175 0.9995592 1.0002413 1.00159 1.0008618 0.9998885
0.99880946 1.000904 1.0023738 1.0008924 0.99959385 0.9984406 0.99906844 1.0009234
1.0018095 0.99915385 0.9986649 1.0011019 1.0018183 1.0001738 1.0002382 0.99942356
0.9985818 0.9994276 0.99826735 0.99972993 1.0004623 1.0008416 0.999109 1.0023341
1.0017289 0.9995882 1.0014914 0.9975608 0.9987447 1.0009261 1.0010834 1.0004221

bias f4 [64]
00000000: 7491 9a39 81f0 823a 7579 123a 1f1b bc3a
00000010: 713d 6fba 86cb 2dbb 57f7 48ba 08e8 5a39
00000020: 92ca 39b9 aa5b 6eb9 c26a 47ba 8710 b4b9
00000030: ceb9 30ba ad49 f13a 56a7 b7ba 53f7 eeba
00000040: 7c23 30b7 dbad 103b b1ac 17ba aa1b 0eba
00000050: 6222 e1ba 1eca 333b 5003 9c3a 89ff 11b9
00000060: f8f1 51ba 54c7 58bb b54a 09bb 9c02 4bba
00000070: f4cc deba b8ba 6e3a ef8c 2d3a a109 a33a
00000080: 9136 023b 1ad7 a83a 6236 41ba 3895 663a
00000090: 069a 5aba be9e 6aba f6a8 3bba ab7a bf38
000000a0: 7264 7339 c081 2d3a 8b63 60ba 5d0e e4ba
000000b0: 1b93 03bb cb5c 203b 5e8c 373b 837f b7ba
000000c0: 94e1 46b9 9576 033b 8e98 d3ba 342a 33ba
000000d0: 2aac a13a 3296 a13a e98d 58bb fe25 863a
000000e0: 0002 cc39 e969 7ebb 7abb a1b8 7ac1 8639
000000f0: a532 0bb9 9881 423a 3bd5 74ba af6d 853b
0.0002948154 0.0009989889 0.00055875565 0.0014351344 -0.0009126282 -0.0026519015 -0.0007666251 0.00020876538
-0.00017718438 -0.00022731596 -0.0007607156 -0.0003434459 -0.0006741554 0.0018408798 -0.0014011662 -0.0018231667
-1.0498679e-05 0.0022076282 -0.0005785926 -0.00054209924 -0.0017176385 0.0027433704 0.0011902843 -0.00013923472
-0.00080087734 -0.0033077793 -0.002094907 -0.0007744224 -0.0016998337 0.0009106803 0.0006620427 0.0012438783
0.001986895 0.0012881488 -0.00073704694 0.0008796039 -0.00083389913 -0.0008950046 -0.0007158661 9.1304384e-05
0.00023211705 0.00066187605 -0.0008559755 -0.00173993 -0.0020076695 0.0024469371 0.002800725 -0.0013999793
-0.00018966786 0.0020059694 -0.0016143487 -0.0006834597 0.0012334634 0.0012328087 -0.003304357 0.0010234711
0.00038911402 -0.0038820452 -7.7119985e-05 0.00025702623 -0.0001327494 0.00074198237 -0.0009339635 0.004071913

running_mean f4 [64]
00000000: f241 80bb bce3 173b 7cc5 ceba 28e8 f1ba
00000010: 464b bebb 21fa 2539 3335 583b 00a5 5bbb
00000020: 0f38 8fbb 1c2e c739 a3aa 123b d3e2 9cba
00000030: 2ef9 db3a 2da4 143b dadc 793b aefb 693a
00000040: 4938 a0bb 3345 d83a 7c87 013a 81c6 223b
00000050: 1615 2ebb 10f7 c73b 7029 d639 6129 df3a
00000060: 70dc 6b3a 41a5 a53a ddf5 2bbb c620 3d38
00000070: 2f5d 5cbb 4a5a 143b 8573 6539 11c1 4cbb
00000080: e185 45bb b496 a3ba 1b1d 543b 5491 9a3a
00000090: a2a6 893b 5fea 1dbb 10b9 6c3b a573 bc3a
000000a0: 5be0 57b9 dcfb 6abb 185e 553b cefa c0ba
000000b0: 6f0e aebb 404b 08bb a2ce 40bb dc87 8d3a
000000c0: c195 9bbb c783 6fb8 a331 853a 5469 9639
000000d0: 7441 a1bb f6ee 473b 6ebe 38b9 a0bd 0ab9
000000e0: 244c 663b 819e 07bb 605d c3b9 07b3 1ebb
000000f0: c4e4 88bb 0529 0f3b 2216 0ebb aa3e 1d39
-0.0039141113 0.0023176512 -0.0015775408 -0.0018456029 -0.005807313 0.00015828806 0.0032990694 -0.0033515096
-0.0043706964 0.00037990592 0.002237954 -0.0011969454 0.0016782635 0.0022680864 0.0038126023 0.0008925748
-0.004889522 0.0016500115 0.0004941148 0.0024837556 -0.0026562861 0.00610245 0.00040848134 0.0017025882
0.00089973863 0.001263775 -0.0026239075 4.5091634e-05 -0.0033624878 0.0022636824 0.00021882176 -0.0031243006
-0.0030139612 -0.0012480826 0.003236598 0.0011792579 0.0042007724 -0.0024095995 0.0036121048 0.0014377726
-0.00020587577 -0.0035855686 0.0032557305 -0.0014723183 -0.005311779 -0.0020796806 -0.0029420038 0.0010797936
-0.0047480767 -5.7104768e-05 0.0010161888 0.00028688705 -0.0049211327 0.0030507422 -0.00017618548 -0.00013231346
0.0035140598 -0.002069384 -0.00037262868 -0.0024215595 -0.0041776616 0.0021844518 -0.0021680673 0.00014996031

running_var f4 [64]
00000000: 3d81 813f 6393 813f 5912 813f 6f56 813f
00000010: d092 803f 10a8 813f 2cf2 803f f76c 813f
00000020: 4537 813f ce3f 813f 7c1c 803f 24bf 813f
00000030: 05da 803f cfe9 803f 75c1 803f 511f 803f
00000040: b4ab 823f af14 823f 2e1b 7f3f 646c 803f
00000050: 3a7f 813f 63df 813f 2e6b 823f 45bb 803f
00000060: 72b4 803f 5039 7f3f e9c8 803f 2615 803f
00000070: 4401 813f 7f3f 813f b99c 803f 70c3 803f
00000080: 34ed 803f 53de 803f d21c 813f d609 823f
00000090: 0e3f 823f 6889 803f c7a5 803f 46c3 813f
000000a0: ca6b 813f 56ca 7f3f 22fd 823f 6eb7 803f
000000b0: b083 813f c661 803f 608c 823f e584 803f
000000c0: 1c39 803f 3158 823f 48fb 803f c469 813f
000000d0: 8f66 823f 4053 813f f9d2 813f a14a 803f
000000e0: a257 813f 0805 823f 5e7f 813f 5e68 803f
000000f0: 810c 823f 868e 813f 6c7f 803f 94ba 803f
1.0117565 1.0123104 1.0083724 1.0104502 1.0044804 1.0129414 1.0073905 1.0111378
1.0094992 1.0097597 1.0008693 1.0136456 1.0066534 1.0071353 1.0059038 1.0009557
1.020865 1.0162562 0.9965085 1.0033078 1.0116951 1.0146297 1.0188959 1.005715
1.0055068 0.99696827 1.0061313 1.0006454 1.0078511 1.0097502 1.0047828 1.0059643
1.0072389 1.0067848 1.008692 1.0159252 1.0175493 1.0041933 1.0050591 1.0137718
1.011102 0.99918115 1.02335 1.0055978 1.0118313 1.0029838 1.0199089 1.0040556
1.0017428 1.0183164 1.0076685 1.0110402 1.0187548 1.0103531 1.0142509 1.0022775
1.0104868 1.0157785 1.0116994 1.003185 1.0160066 1.012162 1.0038886 1.0056939

weight f4 [64, 64, 1]
00000000: dddb a3bd 3f26 d9bc d5b7 d93d d168 d4bc
00000010: 11a0 fabc a358 983d 0a10 e0bb 0661 a2bd
00000020: 35ca 2cbd 473d 5fbc 6dbb 53bd d7e6 3a3d
00000030: 36d0 a63c d5ec 6bbd ece8 31bc e30f ea3c
00000040: ff82 fb3b 1f31 63bd c685 ac3d a44b d93d
00000050: ac8b 14bd b110 bcbd f99a 663d 67cf 63bc
00000060: 332e a63d 8493 cc3d 5faf cb3c ae12 7f3d
00000070: 4973 903d e6d2 a9bd 604e 66bd f91f f33d
00000080: 8ae0 9fbd 4c30 a63d 47d3 a6bd 1ba0 923d
00000090: 4b39 2a3d 0e8b dd3d 61d1 8b3d eacb b63c
000000a0: fd20 5fbd 5709 993d cc36 38bd f8e7 903c
000000b0: 7235 4dba bd77 db3c 8015 a63c cc51 9abc
000000c0: 8c09 d43d cfa1 aabc 434c a23d 64d5 f7bd
000000d0: 82e8 77bd 04d8 3bbd f27a 193d 2614 d8bd
000000e0: 89fe ddbd ccfd fb3d a21c 42bc 7b67 09bd
000000f0: d35c 063d 15a6 0ebd 919e 10bd ca75 9bbd
00000100: 3a8f c3bd b55d 893d 0755 72bd ac34 ecbd
00000110: 2384 c43c 8783 983d 55d6 b13d cfea 01bd
00000120: 358a 8a3c 711a 04bd 32d7 91bc 72cd 6e3d
00000130: 294e 13bd b353 1dbd 7901 b03d b4e9 d23c
00000140: 8d62 f43d 7ce0 083d a276 c6bd a51b a5bc
00000150: f2f9 783b 7687 3ebd f85b dbbc bd2d dfbd
00000160: fc19 dabd fb1d df3d b664 b0ba a443 b93d
00000170: ad7c 463d 5371 ee3c c7b7 a0bd 45ce 1ebd
00000180: 92f8 913d 7996 d13d 0332 9fbd 0869 d93d
00000190: c13e 0dbd 6b96 73bd 6280 6c3d 90b1 a2bd
000001a0: 5bce edbd a7c5 843d 1030 4fbd 7882 853d
000001b0: b0e9 7b3d b166 f33d 1902 4ebd b6db 8c3b
000001c0: fb01 e4bc 2bc3 edbd f6d0 debd 0cd1 dcbb
000001d0: 6f30 fd3d 955f 8bbb 773e 4abb 1114 0dbd
000001e0: 1e1b edbd a96c debd 80a6 a23d c978 bc3d
000001f0: 1d62 3fbd d84b cdbd 6499 f6bd 1a42 8bbd
00000200: 5a53 2abd d0fc 3e3d 5c9d ce3d 20a3 d4bd
00000210: 4e6f 633d 724d 65bc d8aa 96b9 94cd db3d
00000220: 2ef2 a53c 1bca 9e3d 39e6 813c 1836 9c3d
00000230: 4d3e 003e da70 5c3d 1900 8dbc 1384 8b3d
00000240: c5e0 5fba 3a5d f7bc 735a bcbc ef5d b53d
00000250: a6ce ddbc b230 3b3d f7d3 253d 276c 4b3c
00000260: 7beb 28bd 8dee 2bbd 16fa 95bd 9da9 adbd
00000270: 9981 793c a78c 893d 0d30 81bd 8b5b 1dbd
00000280: 9d5b 49bc d0d8 64bd b9a1 473b fbe9 1a3d
00000290: f6b3 68bc 9993 323d 7662 76bd b3c6 023c
000002a0: 4b61 6a3b c098 65bd b2b1 0a3d 04b6 c33d
000002b0: 99cd b43d e8ff fb3d d064 66bd c8a9 f93d
000002c0: ec0c a73c c7a6 153d b5b5 183d e553 e73d
000002d0: 256c 2bbd 3fab 793d a888 323d 770f 16bc
000002e0: a08f 0c3d a688 f3bd 05a4 3d3c 0b45 d93d
000002f0: ec2d 253c 88b4 993c df65 e9bd 46c7 3bbc
00000300: 6b80 58bd f5ab 1f3c a8cb e03d 14e4 913d
00000310: 64a9 483d 0e7f f0bd 201d 7b3d 6feb 1f3c
00000320: 0c77 9fbc f906 e03d 5601 8ebc 7142 92bd
00000330: f5e6 4bbb 38d3 5fbd 515c 4c3d 05fa c53d
00000340: 703b 97bd 5709 b93d 6ceb 6cbd 0ed0 a9bd
00000350: 6956 8fbc 6cf8 91bd 41fe a23d 778d a6bd
00000360: cd42 df3d 1f22 4cbc 21d6 753c f03a 873d
00000370: 04a0 67bd fb1c 9a3d e77e 673c 796c f43d
00000380: 7e28 3a3d 8b94 053d b867 edbd 7859 9abc
00000390: 7954 9fbd 03f1 803d 4b4f 46bd 02e3 1dbd
000003a0: bd67 98bc dd18 37bd c153 c53c f153 ae3d
000003b0: d2ad f23d 353c adbd 6764 253d b74c 893d
000003c0: 0c39 00bd 2a50 883d bc1e efbb beba 36bd
000003d0: 0028 b43d 4d58 c1bd 95bf f8bd 24f7 383d
000003e0: 4922 f9bd 47fd 943d 2a7a 683d 9d36 a43d
000003f0: c6af d83d 5886 d8bd 43b2 d63d 439d 003b
-0.0800092 -0.026507495 0.10630766 -0.025928887 -0.030593904 0.07438781 -0.0068378495 -0.07928662
-0.042185027 -0.0136254495 -0.051692415 0.045630302 0.020362955 -0.057598908 -0.010858756 0.028572029
0.007675528 -0.055466767 0.08423953 0.106101304 -0.036266014 -0.09182871 0.056300137 -0.013904429
0.081142806 0.09989074 0.024863897 0.062273674 0.07053239 -0.08292179 -0.056227088 0.11871333
-0.07806499 0.08114681 -0.08145767 0.07159444 0.041558545 0.10817538 0.06827045 0.02231403
-0.05447482 0.074724846 -0.044974133 0.017688736 -0.00078280934 0.026790494 0.020273924 -0.018837832
0.103533834 -0.02082911 0.07924702 -0.12101248 -0.06052447 -0.045860305 0.037470765 -0.10550718
-0.10839564 0.12304267 -0.011847647 -0.033545952 0.032803368 -0.034826357 -0.03530747 -0.07590826
-0.09548803 0.06707326 -0.05916312 -0.11533484 0.023988789 0.07446962 0.08683459 -0.03171807
0.016911605 -0.03225178 -0.017802808 0.058301397 -0.03596321 -0.0384099 0.08594031 0.025746204
0.119328596 0.03341721 -0.09690596 -0.020154784 0.0037990776 -0.046515904 -0.026777253 -0.10897396
-0.106494874 0.1089439 -0.0013457749 0.090461046 0.048458744 0.029106772 -0.07847553 -0.038770933
0.07127489 0.102337785 -0.07773211 0.10615736 -0.034483675 -0.05946962 0.057739623 -0.079440236
-0.11611625 0.06483012 -0.050582945 0.065190256 0.06150216 0.11884821 -0.05029497 0.0042986525
-0.027832976 -0.11609491 -0.108797 -0.0067387875 0.123627536 -0.0042533376 -0.0030859986 -0.034442965
-0.11577438 -0.10860569 0.079419136 0.092027254 -0.046724427 -0.10024232 -0.12040976 -0.06799717
-0.041583396 0.04662782 0.10088608 -0.10382676 0.05552607 -0.013995515 -0.00028737518 0.1073257
0.020257082 0.07753392 0.015856849 0.07627505 0.12523766 0.05381856 -0.01721196 0.068123005
-0.0008540268 -0.030195821 -0.022992348 0.08855807 -0.027076077 0.045700736 0.04048535 0.012415922
-0.041240197 -0.041975547 -0.07323091 -0.08479617 0.015228652 0.067162804 -0.06307993 -0.03841738
-0.012289909 -0.05587083 0.0030461384 0.037820797 -0.014203062 0.04359779 -0.060152493 0.007981944
0.0035763558 -0.056053877 0.03386087 0.09556201 0.08828277 0.123046696 -0.056248486 0.12190586
0.020391904 0.036536004 0.037282664 0.112952985 -0.04185118 0.06095433 0.043587357 -0.009158961
0.03431666 -0.11891298 0.01157475 0.10608872 0.010081749 0.018762842 -0.113963835 -0.011461085
-0.052856844 0.009745588 0.10976344 0.071235806 0.04898967 -0.11742984 0.061307073 0.009760722
-0.019465946 0.1093883 -0.017334621 -0.07141579 -0.0031113003 -0.054644793 0.049892727 0.09666828
-0.07384384 0.090349846 -0.057841703 -0.082916364 -0.017497258 -0.07127461 0.07958651 -0.08132451
0.10901413 -0.012459307 0.015004666 0.06603038 -0.056549087 0.07525059 0.014129377 0.11934752
0.045448773 0.032612365 -0.115920484 -0.01884149 -0.07779784 0.06295969 -0.048415463 -0.03854657
-0.018604154 -0.044701446 0.024087789 0.08512104 0.1184956 -0.08458749 0.040378954 0.06704085
-0.031304404 0.06655915 -0.007297365 -0.044611685 0.08796692 -0.0944067 -0.121459164 0.045157567
-0.121647425 0.07274871 0.05675713 0.08018229 0.10580401 -0.10572499 0.104832195 0.0019624985

bias f4 [64]
00000000: 886c d6bd 04ed bebd 193e 00be e0dd b33d
00000010: affc fc3d 5e66 1c3d 8ffc ef3d 77e9 893d
00000020: ba19 cdbd 4951 2cbd 6732 913d 4325 c93d
00000030: 5fc9 d53d 5d12 c03b 8754 883d e800 e6bb
00000040: e0e3 bf3d 6a1d 943d 17db fc3d 9fdb c83c
00000050: f62b 1e3d 8829 8e3d 26c6 033d ad51 3f3d
00000060: 0999 ebbd 491d 493d e478 a23d c38c d0bd
00000070: 8690 96bc 8317 9abb 055e 20bd 2769 b6bd
00000080: a1a6 2b3d d11a de3d fd09 f5bd 4c59 8c3c
00000090: 7499 b83d 85fd bbbd bffe ab3d 9af8 7bbb
000000a0: 5aa3 7a3d 3781 9cbd 5e83 b0bd 3c00 d5bd
000000b0: 01a9 bd3d a7e8 b0bc 98ac 0fbc 27f8 cbbc
000000c0: 7948 02bd 4242 363d 743b a9bd 76b1 d63d
000000d0: 1326 e53d a6b0 ae3d 8b74 263d 9b51 a33c
000000e0: 824c ccbc 87f2 cd3d f630 3b3d dc5d 8d3c
000000f0: 7133 f23d dcc7 3b3d eb24 4a3d 179c 123d
-0.104699194 -0.09322551 -0.12523688 0.08782554 0.12352883 0.038183562 0.117180936 0.06733983
-0.100146726 -0.042069707 0.070896916 0.0982156 0.10438799 0.005861564 0.06656747 -0.007019151
0.093696356 0.07232173 0.123464756 0.024518786 0.038616143 0.06941515 0.03217139 0.04670875
-0.115037985 0.049100194 0.07933214 -0.10183098 -0.018379461 -0.00470251 -0.039152164 -0.08906775
0.041906957 0.108449586 -0.11964796 0.017132424 0.09013644 -0.091792144 0.08398198 -0.0038447739
0.06119094 -0.07641833 -0.08618806 -0.10400435 0.092607506 -0.021595312 -0.008769177 -0.024898602
-0.031807397 0.044496782 -0.08263293 0.10483067 0.11188903 0.08529787 0.040638488 0.019936373
-0.024938826 0.10056024 0.04570099 0.01725667 0.11826218 0.045844898 0.049351614 0.03579339
