Previous work run/CORL/models/l2i/l2i_model_20hr.ckpt (torch, 278188 bytes, 58 tensors)

weight f4 [64, 11, 1]
000000 60 10 80 3e 13 e6 1f 3e 46 d7 89 3c 2a 0a ae bd
       0.25012493 0.1561511 0.016826283 -0.084980324
000010 c9 ba 1f 3d 17 68 4c be f8 69 2d bd ca 94 39 3d
       0.03899649 -0.19961582 -0.042337388 0.045307912
000020 8a d0 7f 3d 00 ad 39 be 52 5d ab 3d e9 0f 0b be
       0.062454738 -0.181324 0.08367409 -0.13580288
000030 36 5a dc be 8e 1d 26 be c2 51 ec be 7c 9a 33 3e
       -0.43037575 -0.16222212 -0.46156126 0.175394
000040 20 55 c4 bc 30 51 2a be a4 8f 81 3e 4d 28 79 be
       -0.023966372 -0.16632533 0.25304902 -0.2433178
000050 27 78 57 be 63 44 98 bd 37 9d e4 3d 45 c0 0d be
       -0.21041928 -0.07434919 0.11162799 -0.13842876
000060 5d ef 29 3e ac 9c 6f bd 95 58 5c bd 07 d3 fb be
       0.16595216 -0.058499023 -0.053795416 -0.4918444
000070 98 1a 87 3e 81 fd fa 3c 01 d9 c0 bd f8 5f 83 be
       0.26387477 0.030638458 -0.0941639 -0.25659156
000080 e9 16 d6 3e 56 04 9f 3d 11 0e 1f bd fe 8b 2d 3e
       0.41814354 0.07764499 -0.038831774 0.16947934
000090 71 22 05 b8 5a 54 7d be c6 6c 05 be 3d 29 63 3e
       -3.1741747e-05 -0.24739209 -0.13029775 0.221837
0000a0 93 be fb 3b 3a 2e 2c bd e6 0b 29 bd 2d ed 13 bd
       0.0076826303 -0.042036273 -0.041271113 -0.03611486
0000b0 23 7c 3d 3d 87 d8 ae 3d b3 63 b3 bd 69 78 47 3e
       0.046260964 0.08537393 -0.087592505 0.19479527
0000c0 8c 09 23 3e e0 65 96 be d8 da d1 bd eb ac db 3d
       0.1592161 -0.293746 -0.10246819 0.10726341
0000d0 83 ba 66 3e f2 cc a8 3d a2 a5 af 3c d9 f5 c0 bc
       0.22532086 0.08242215 0.021441285 -0.02355473
0000e0 a2 3f a0 3c f1 a6 68 3e 8f 6e a0 be 81 58 c0 bb
       0.019561592 0.22719933 -0.3133435 -0.0058699255
0000f0 93 76 97 bd 3a d9 c3 3d b1 ed b6 bd 76 74 d2 bc
       -0.07395663 0.09562917 -0.08932055 -0.025690299
000100 d8 89 38 be cf bf 00 3d ab 2e 4a 3d 50 14 ae be
       -0.18021333 0.031432923 0.049360912 -0.33999872
000110 9e aa 01 be 06 d6 de 3d ce e9 88 bb f0 96 d6 bc
       -0.12662742 0.108806655 -0.0041782623 -0.02619502
000120 9c b1 e8 3d 16 a7 7b 3c d7 0d 5b be c8 fe 86 bd
       0.11362001 0.015359661 -0.21391998 -0.065915644
000130 e3 f2 86 bd 84 f7 ad bd ce 89 ce 3d 24 e8 13 3c
       -0.06589296 -0.084944755 0.10084878 0.009027515
000140 37 be 4c bd f7 4a 0f 3e a6 b5 03 be 0d ed ab 3c
       -0.04998609 0.1399344 -0.12862262 0.020987058
000150 df 65 75 bd f0 09 9a 3e 4e b5 87 3d 74 c2 2a 3e
       -0.059911605 0.30085707 0.06626378 0.1667574
000160 d8 14 22 3c 1c 8a a1 be 47 48 75 3e 54 bf 3a be
       0.009892665 -0.31550682 0.23953353 -0.18237048
000170 a5 d7 2e be ab e8 1f 3e ce a7 c0 3c 13 3f b5 3d
       -0.1707445 0.156161 0.023517516 0.08849921
000180 47 a1 58 3e fd 65 41 be 13 da be bd 8f 36 86 3e
       0.21155272 -0.18886562 -0.09318938 0.262135
000190 06 e5 b2 bd 30 31 ea bc 0c 44 20 bd 37 85 59 3e
       -0.08735089 -0.028587908 -0.039127395 0.21242224
0001a0 20 d8 22 be cc ad 92 3e d8 81 f9 3b bd 85 ff 3c
       -0.15902758 0.28648221 0.0076143555 0.031191701
0001b0 06 1a 13 3e 4b 00 81 be ba d0 29 be c9 77 a2 3d
       0.14365396 -0.25195536 -0.16583529 0.079330035
0001c0 f7 e6 0d be ab b9 2b bf 05 c4 9f be 7c e3 9c 3d
       -0.13857637 -0.6708018 -0.3120424 0.07660577
0001d0 41 cc 29 3e 40 9d 23 be b0 03 74 be 7b 9f 88 3e
       0.16581823 -0.15977955 -0.23829532 0.26684174
0001e0 bc 83 ae 3d ab 83 03 be 79 25 ea 3d 28 4a f0 3d
       0.0852122 -0.12843196 0.114329286 0.11732894
0001f0 28 68 9b bd df f8 99 be 9b a2 6f bd d5 1f 43 3e
       -0.075882256 -0.30072686 -0.058504682 0.19055112
000200 99 bb 5c 3b 74 29 b9 3e 82 16 6e bd 70 8b fe bd
       0.0033681153 0.3616444 -0.058126934 -0.12428939
000210 ca 9d 0f bd 13 ef dd 3d 9c 1a 73 bc 5a 31 95 be
       -0.03506259 0.108366154 -0.014837887 -0.29139215
000220 1e 6a c4 3c 23 02 9e bd d5 88 04 3e c5 72 5d 3d
       0.023976382 -0.07715251 0.12942822 0.05406453
000230 b5 a4 a6 bd 1d c0 8f bd 88 01 31 3d 02 49 99 bb
       -0.08136884 -0.070190646 0.04321435 -0.0046778927
000240 2c ce dd 3b bc 96 f5 3d 13 be c0 b9 28 24 b7 be
       0.0067689624 0.11991641 -0.0003676271 -0.35769773
000250 9d 59 26 bc 74 1a cc bd 12 fe 0a 3e 57 fc 85 3e
       -0.010153201 -0.09965983 0.13573483 0.26169083
000260 86 97 1a 3e 0d 86 79 be 2a 08 09 3d 4d d5 b1 bd
       0.15096864 -0.24367543 0.03345505 -0.08683262
000270 8f 0b b4 bd 86 d8 9d 3d 12 71 6b 3d 4f 0f 12 3e
       -0.08791267 0.07707314 0.05748088 0.14263652
000280 2d 76 0f be df 88 5b bd 97 d3 08 bd 79 7e f0 bd
       -0.14009924 -0.053597327 -0.033404913 -0.11742873
000290 76 a4 33 3e 33 e3 a3 be 6f e1 59 be d4 cb 3c 3d
       0.17543206 -0.32009277 -0.21277402 0.046092823
0002a0 50 d8 b4 3d 9b 62 27 be e3 46 6c be 39 01 27 be
       0.08830321 -0.16346209 -0.23073916 -0.1630906
0002b0 8c 13 89 3d 99 7f 72 3d 8a 9e fb bc 18 3c 97 bd
       0.066931814 0.059203718 -0.030715246 -0.07384509
0002c0 06 21 f8 3d 1c 6b f7 be 35 0d 4e 3e 8a c4 d6 bc
       0.12115674 -0.48323905 0.20122226 -0.026216764
0002d0 b6 7b b0 bd 01 29 3a 3d 6b 7f 80 3e 2f d9 07 bd
       -0.08617346 0.04544926 0.25097212 -0.033166107
0002e0 82 be 17 3e e3 c1 ca be cc 6f a8 3d 33 27 4f 3d
       0.14818767 -0.3960105 0.082244486 0.050574493
0002f0 82 37 d1 3e d7 b7 5a be 01 7c 9a be e5 b5 27 3e
       0.40862662 -0.21359192 -0.30172732 0.16377981
000300 f2 c5 c3 bc 31 a7 47 3e d9 dd 04 bd 90 97 42 3e
       -0.023898099 0.19497372 -0.032438133 0.19003129
000310 04 8b 91 bd fb 7b da 3d 2f 21 0f 3e 5e d1 2c bc
       -0.07106593 0.10668179 0.13977502 -0.010547964
000320 87 f1 b4 3c 84 9e 07 be 07 fd f3 bd 46 6e 35 be
       0.022087825 -0.13244063 -0.119134955 -0.17717847
000330 39 49 58 be 0f 62 d1 3d 13 d4 ec bd d3 67 2d be
       -0.21121682 0.10223781 -0.115638874 -0.16934137
000340 24 40 1d 3e b5 4c ce 3d 6a 08 68 3d 56 be 13 3e
       0.15356499 0.100732245 0.05664865 0.14428076
000350 13 04 5e be 95 2a 7b bd 6b dd c3 3e 6b eb 61 3e
       -0.21681242 -0.061319906 0.38254866 0.22062461
000360 c3 bb aa bd 70 0a 2c bd 74 24 54 be f9 27 ae 3c
       -0.08336594 -0.04200214 -0.20717031 0.021259295
000370 da 53 ba be 86 7c 54 3d 4b f8 b6 bc 6e 92 38 be
       -0.363921 0.051876567 -0.022335192 -0.18024608
000380 39 72 1c bd 62 1f 42 bc 93 5e f4 bd 61 1f c5 be
       -0.03819487 -0.011848303 -0.11932101 -0.38500503
000390 5e 0c 15 be 0d ae 6f 3d 9d 4b 75 3d 74 1a 7c bc
       -0.14555499 0.058515597 0.059886564 -0.015387166
0003a0 aa e6 09 be 0c 28 f3 3c 45 a7 0b 3e 45 79 1b be
       -0.13466898 0.029682182 0.13638027 -0.1518298
0003b0 80 7d 1f be a7 05 79 bd 61 70 24 bb 68 f4 0f 3d
       -0.15575218 -0.060796406 -0.0025091397 0.035145193
0003c0 94 49 0d be 00 c1 d7 bd 30 45 24 bd 1a c2 9d bd
       -0.13797599 -0.10534859 -0.040105045 -0.077030376
0003d0 44 0b 30 3d fb 3a 22 3d 13 58 a4 3d 2f 96 1d be
       0.042979494 0.03960703 0.08024611 -0.15389322
0003e0 95 57 0e bd a3 65 6f bd 5b da 6d 3c aa 07 d4 bd
       -0.034751493 -0.058446538 0.014517392 -0.10353024
0003f0 c2 e7 83 3d 28 84 6b 3d 52 3e f0 3d 0d 17 21 3e
       0.06440689 0.05749908 0.11730637 0.1573145

bias f4 [64]
000000 61 6c 33 3e 9a 2d 0b 3d 52 8d 6b be cb fd 84 3e
       0.17521812 0.033979036 -0.23003128 0.2597488
000010 af 13 c6 3d 23 2d 2f 3c b9 f9 6a 3e 7a 91 8c bb
       0.09671723 0.010691914 0.22946824 -0.004289803
000020 5c 7d e2 3d c1 63 3d 3e bc ac 54 bd ea 28 d7 3d
       0.11059067 0.18495084 -0.051922545 0.105058506
000030 8e 43 39 3d dc cf 4a 3d 48 e9 b7 3d 71 a6 4e 3e
       0.04523044 0.049514636 0.08980042 0.2018068
000040 c0 26 0f bd ae 17 97 3d c7 5a 4c 3e ba b2 85 3d
       -0.034949064 0.073775634 0.19956504 0.0652823
000050 cf 5d 64 be a6 52 83 3e 81 8c 90 be a8 98 95 be
       -0.2230141 0.25648993 -0.28232196 -0.2921803
000060 49 12 30 3d 83 a7 4a 3e c7 1f 54 3e 63 29 95 be
       0.042986188 0.19790463 0.20715247 -0.29133138
000070 e5 b4 5f be b2 5f 2b 3e e7 24 73 3e 70 55 5d 3d
       -0.2184635 0.16735724 0.23744546 0.054036558
000080 bf a7 4b 3d 18 3c 8a 3c 77 06 7f 3e 93 37 84 3e
       0.049720522 0.016874358 0.2490481 0.2582365
000090 5d e4 ba 3d a3 cc 3d be c4 42 98 be 42 99 8a 3e
       0.09125588 -0.18535094 -0.29738438 0.2707005
0000a0 80 eb 45 3e e7 0c bd 3d c3 80 ee 3d c7 fc 1f bd
       0.19328117 0.092309766 0.11645653 -0.039059427
0000b0 e8 7d 7b be a4 ae 26 be 48 06 8c be 16 23 98 3e
       -0.24559748 -0.16277558 -0.27348542 0.29714268
0000c0 c4 a7 70 3e 34 ea 78 3e 3e 8c 2f 3e b0 72 d7 3d
       0.23501498 0.24308091 0.17143342 0.10519922
0000d0 53 57 72 3e fc a9 9f bd 24 7d 03 be e7 6e 22 3e
       0.23666124 -0.07796094 -0.12840706 0.15862618
0000e0 1c 34 b8 3d ce 95 5a be cf d7 39 be 7a bd 68 be
       0.08994314 -0.21346208 -0.1814873 -0.2272853
0000f0 a8 5f 51 3e 69 22 95 3d 4d 39 dd 3d 9e 09 ca 3d
       0.20446646 0.07281954 0.10801945 0.098651156

weight f4 [64]
000000 c3 a3 82 3f c9 cb 7f 3f 07 5c 82 3f 7f 20 81 3f
       1.0206226 0.99920326 1.0184335 1.0088042
000010 d4 31 80 3f 4e a5 7e 3f e4 0e 7e 3f 5b b8 81 3f
       1.0015206 0.99470985 0.9924147 1.0134386
000020 80 71 7f 3f 71 e9 82 3f 39 44 80 3f e7 65 7c 3f
       0.9978256 1.0227491 1.002082 0.9859299
000030 50 c7 7e 3f 07 a1 80 3f f7 b8 80 3f b0 4d 80 3f
       0.99522877 1.0049142 1.0056447 1.0023708
000040 0a 82 7f 3f 2a f3 7f 3f da 62 80 3f 33 58 80 3f
       0.998078 0.99980414 1.0030167 1.0026916
000050 f0 7a 80 3f 61 9e 7f 3f 27 49 80 3f e1 87 7e 3f
       1.0037518 0.9985104 1.0022324 0.99426085
000060 c1 20 7f 3f 0e 23 81 3f 7b 7d 7f 3f db eb 7d 3f
       0.99659353 1.0088823 0.99800843 0.9918801
000070 e8 79 83 3f dc 58 80 3f 19 69 79 3f 31 1e 80 3f
       1.0271578 1.0027118 0.9742599 1.0009214
000080 7f 2d 7d 3f 63 e2 79 3f 7a ca 81 3f e1 58 7e 3f
       0.98897547 0.97611064 1.0139916 0.9935437
000090 42 57 80 3f 28 31 7e 3f 10 10 80 3f 4d 80 7e 3f
       1.0026629 0.99293756 1.0004902 0.9941452
0000a0 94 1c 7c 3f 9a 61 7f 3f 48 29 80 3f 0a b2 7b 3f
       0.98481107 0.99758303 1.0012598 0.9831854
0000b0 36 eb 80 3f b7 6b 80 3f a0 85 7c 3f ae be 7e 3f
       1.0071781 1.0032872 0.98641396 0.99509704
0000c0 7c f5 81 3f 41 80 7f 3f 36 a4 80 3f 76 49 80 3f
       1.0153041 0.99805075 1.0050113 1.0022418
0000d0 02 8c 7f 3f 8f 0f 82 3f 90 4e 7f 3f f5 0c 7f 3f
       0.9982301 1.0160998 0.9972925 0.99629146
0000e0 ad c9 80 3f 7b 10 82 3f fe 69 7f 3f ba 04 7e 3f
       1.0061547 1.016128 0.99771106 0.9922596
0000f0 52 14 7e 3f f3 a8 7f 3f 8d 9f 81 3f 7e 20 7f 3f
       0.99249756 0.9986717 1.0126816 0.99658954

bias f4 [64]
000000 46 98 7f bc d3 bd d3 bc b0 e1 0d bc a7 37 84 3c
       -0.01560027 -0.025847351 -0.008659765 0.016139818
000010 b1 06 34 3b ef 2d 68 3b 14 d7 cc bb a9 08 44 3c
       0.0027469809 0.003542777 -0.0062512252 0.011964955
000020 08 be 85 bc ce c4 b5 bb de 49 a4 3c 27 4f 6b 3c
       -0.016325966 -0.0055471426 0.020054754 0.014362133
000030 9d 25 5d bb b3 a1 f5 3b ec 82 a2 3b 7c 88 0f bc
       -0.0033744343 0.0074960827 0.0049594548 -0.008760568
000040 5b 98 5f bc df 3e 26 bb 82 f5 22 3b 81 ec 41 bc
       -0.013647164 -0.0025367064 0.0024865572 -0.011836172
000050 02 05 59 bc 8f 33 b6 39 d2 41 0c 3c b1 90 1b b8
       -0.013245823 0.0003475216 0.008560615 -3.7089634e-05
000060 9b 25 96 bc 16 2d 8b bb be 56 c7 bb 10 4c 6c bb
       -0.018328479 -0.004247318 -0.0060833385 -0.003605608
000070 a5 e5 a4 bc a8 bd 79 3c ed d6 21 3a ff 8c 92 bc
       -0.020129034 0.0152429715 0.0006173689 -0.017889498
000080 82 3e 96 3a 1f 13 43 3c 42 16 59 3c ed 3d 8b 3c
       0.001146272 0.011906414 0.013249936 0.016997302
000090 da 36 8c 3c 85 37 1e 3c d5 ac 80 bc e9 bd ad 3b
       0.017115999 0.009656792 -0.015707413 0.00530218
0000a0 33 e1 6b bc 9d 4c 8b 3b 27 3d 1d 3a 29 86 9e 3c
       -0.014396953 0.0042510764 0.0005998187 0.019351082
0000b0 31 f2 40 3c 02 ad 6a 3a 51 66 6c bc 6c 71 1f 3a
       0.011776493 0.0008952172 -0.014428691 0.000608227
0000c0 a4 04 93 3c b4 64 0f bc 4f 99 f4 3c 2c 19 1b bc
       0.017946549 -0.008752037 0.02985826 -0.009466451
0000d0 29 5e 11 bc 80 2c 00 3c 90 73 93 bb 37 00 9c 3c
       -0.008872547 0.00782311 -0.00449986 0.019043071
0000e0 d5 f6 1d bc ad b9 0a bc a0 28 d4 3b 3b 95 69 bc
       -0.009641369 -0.00846712 0.0064745694 -0.014256771
0000f0 dd 15 45 39 be f6 cc bb 32 86 13 3b 58 a8 cf bb
       0.00018795529 -0.006255 0.0022510407 -0.006337207

running_mean f4 [64]
000000 1e 83 96 3f ee 1a ea bf eb 2f ef 3d c5 c1 18 3f
       1.1758764 -1.8289468 0.116790615 0.5967067
000010 e3 84 36 3f 3e f1 34 bf 9b fa f2 3e b8 1f c5 be
       0.7129652 -0.70680606 0.47456822 -0.38500762
000020 26 07 77 be 49 82 b4 3f db 87 18 c0 18 b0 1d bf
       -0.2412382 1.410226 -2.383292 -0.6159682
000030 ef 15 25 bf 53 e8 a1 bd 39 ff b3 3e ef 68 b7 bf
       -0.64486593 -0.079056405 0.35155657 -1.4328898
000040 a6 e1 d6 3e 3a 70 68 bd 3c d4 c1 3e 38 12 b8 3e
       0.4196903 -0.056747653 0.37857234 0.359514
000050 8e 06 24 c0 4e 71 5c 3e f3 9b f3 be f7 eb ca 3e
       -2.5629 0.21527597 -0.47579917 0.39633152
000060 13 10 d6 3f f6 f9 b5 3f 1b b0 4f 3f b4 0a 24 bf
       1.6723655 1.4216907 0.8112809 -0.6407883
000070 26 5f aa 3f 74 62 f7 bc e6 64 bc be 51 2b ee be
       1.3310287 -0.030198313 -0.3679573 -0.46517423
000080 0a 2f df 3f a2 6a 80 3d 74 bf 92 bf 34 2f 42 be
       1.743623 0.062703386 -1.1464677 -0.18963319
000090 b6 1c 90 be ff 28 ba 3e 0e 79 14 be 6d af 9a 3f
       -0.28146905 0.36359403 -0.14499304 1.2084786
0000a0 d4 47 f0 bc c1 3a 63 bf 83 02 97 3e 74 27 c8 be
       -0.029331125 -0.88761526 0.29494104 -0.390926
0000b0 82 78 17 3f bd f0 f8 3d ee ac 18 bf cc dd ec 3e
       0.59168255 0.12155292 -0.5963887 0.46262968
0000c0 41 87 2e bf 7e 66 1f 3f 5b d5 0d 40 1c 78 08 bf
       -0.6817513 0.62265766 2.2161472 -0.5330827
0000d0 b5 fe 2a bf c1 3f 1a 3f 59 3c 1f 3f f3 dd 96 3d
       -0.667949 0.6025353 0.6220146 0.07366552
0000e0 7d bd 57 be 4d 96 7b 3e 87 86 bd 3e 98 1c b3 bf
       -0.21068378 0.24569054 0.370167 -1.3993101
0000f0 9f 98 25 be 31 fb 16 bf 93 de e7 be d5 dd 2f 3f
       -0.16171502 -0.5897704 -0.45286998 0.68697864

running_var f4 [64]
000000 f3 ae 03 3f 6b f4 96 40 61 d1 18 3e 08 1a 2b 3d
       0.51438826 4.717336 0.14923622 0.041772872
000010 f0 6f 4f 3f ac 92 fb 3f ef 59 82 3e 24 ea f3 3d
       0.8103018 1.9654136 0.2545924 0.11909893
000020 6a af 39 3f b2 84 f7 3e 32 c1 1a 41 85 e6 83 3e
       0.72533286 0.48343426 9.672167 0.2576181
000030 39 33 d9 3f b2 48 a5 3c 45 8f 01 3e c6 3e 44 3f
       1.6968757 0.020176265 0.12652309 0.76658285
000040 cd 8a eb 3d a5 8b de 3f 2a a5 f3 3e cd 7d 66 3f
       0.115010835 1.7386366 0.47586948 0.90035707
000050 32 19 e3 3f 29 02 b0 3e 0d b2 13 3d f2 8c 80 3f
       1.7742064 0.34376648 0.036058474 1.0043013
000060 30 e8 d9 3f f0 8d cf 3f 82 a3 55 3d a1 95 f1 3d
       1.7023983 1.6215191 0.052157886 0.117961176
000070 0c 0e 01 3f 67 76 29 3e 63 ac af 3e 32 2b d9 3e
       0.5041206 0.16549073 0.34311208 0.42415768
000080 fe 24 98 3f 61 53 4a 3f 74 f1 1b 3f 63 0f 2e 3f
       1.1886289 0.79033476 0.60915303 0.6799223
000090 62 6d a6 3f aa fc b5 3e 8f 08 c5 3d c0 6a 08 3f
       1.3002131 0.3554433 0.09620773 0.5328789
0000a0 a6 6f bc 3e 54 81 96 3f a4 a9 15 3d 6d b1 14 3e
       0.3680393 1.1758218 0.036538735 0.14520808
0000b0 85 6e 27 3e fd 80 99 3f ba 61 7c 3f 20 fb 41 3d
       0.16350754 1.1992489 0.9858662 0.047358632
0000c0 ef 12 37 3f ed 52 52 3f 7a 6d 91 3f bc 38 03 3f
       0.71513265 0.82157785 1.1361535 0.51258445
0000d0 e6 f5 c1 3f 43 b5 65 3e 3d fa 8b 3e 6c 16 e2 3c
       1.5153167 0.22432427 0.27339354 0.027598582
0000e0 95 aa 76 3e b8 f4 99 3d 31 99 07 3f 5a 36 da 3e
       0.2408851 0.075173795 0.52968127 0.42619592
0000f0 4b 5a 47 3d d4 94 9c 3d 77 4a e3 3d ac f8 02 3f
       0.048670094 0.07645574 0.110981874 0.51160693

in_proj_weight f4 [192, 64]
000000 07 db a4 bc c2 be 88 3d 14 99 03 3e 92 ad 5f 3c
       -0.020123972 0.06677009 0.12851363 0.013652222
000010 c3 63 ca bd af b7 30 bd d6 2a 0b be a8 09 c5 bd
       -0.09882309 -0.043143924 -0.1359056 -0.096209824
000020 59 02 1b bc ab 8f bf 3d 1d c2 aa 3d b7 8e 98 bd
       -0.009461009 0.09353574 0.083378054 -0.07449096
000030 ad d1 eb bd 16 54 f2 3d ae 4f 9d bc 0d 3f d3 3d
       -0.11514602 0.11832444 -0.019203033 0.1031476
000040 13 54 8d 3c 22 de b9 bd 0d 18 b9 3d 9a e6 a2 bc
       0.017252004 -0.090755716 0.090377904 -0.01988535
000050 b7 a3 b1 3d 60 1e 09 3e b3 21 27 3c cc 52 9c 3d
       0.08673804 0.13390493 0.010200906 0.0763298
000060 7c 6a 04 be ef a0 9f bd e1 5f 09 3d dd a8 97 bd
       -0.12931246 -0.077943675 0.033538703 -0.07405255
000070 51 75 01 3e 88 73 cb 3d 52 38 f4 3d 03 07 26 bd
       0.12642409 0.09934145 0.11924805 -0.04053403
000080 13 0e 1b be ab cf a5 bd 91 0d f4 bc 44 5d 19 bc
       -0.15142088 -0.0809625 -0.029791625 -0.009360615
000090 20 1f 5a 3d 86 60 59 bd e6 cb a7 bc 42 76 f8 bd
       0.05325234 -0.053070568 -0.020482969 -0.12131931
0000a0 0c 21 6a bd 79 08 23 3c e7 c8 bd bd 02 82 4d 3d
       -0.057160422 0.0099507505 -0.09266835 0.050172813
0000b0 97 27 cd bd 02 8b c5 bd 3c 12 ea 3d 3e 5a c8 bd
       -0.10017317 -0.09645654 0.11429259 -0.09782837
0000c0 d7 1b 0d 3e 6d ee fc 3a 56 6f 8f 3d 72 2f 6d 3d
       0.13780151 0.0019297131 0.070036575 0.057906576
0000d0 14 ee 27 3c 8c 03 ba 3d a9 b9 9d bd 6a d1 03 3e
       0.010249633 0.09082708 -0.077014275 0.12872854
0000e0 60 4b a3 bd 74 bd c8 3d 0c ac c5 3c 7b 94 f0 bd
       -0.07973361 0.0980176 0.02412989 -0.117470704
0000f0 ad 50 1d 3d 88 9f 3d bd 42 ed fb bd d3 68 86 3c
       0.038407017 -0.04629472 -0.12301113 0.016407406
000100 18 d1 b9 3a ed 66 1c be 11 0f 56 bd 03 68 18 bd
       0.0014176695 -0.15273638 -0.052260462 -0.03720857
000110 1e 40 41 3c 82 a4 0f bc fa 6e e3 bd a1 8a 80 bd
       0.011795072 -0.008767249 -0.111051515 -0.06276441
000120 5d 39 75 3d f4 f2 02 3c cd 33 8c 3d 83 5d c5 bd
       0.05986916 0.007992495 0.06845818 -0.096369766
000130 ff 9c 5b bd d9 35 08 be fd fe b2 bd 6e cf 58 bd
       -0.05361652 -0.13301791 -0.087400414 -0.052932195
000140 73 25 f5 3d 04 93 a2 bd c3 51 98 bd 4a 2c 54 3c
       0.119700335 -0.07938197 -0.0743747 0.012950012
000150 23 be 0d be 67 ab fe 3d 09 a5 2f bd d7 2a b2 3c
       -0.13842063 0.12435036 -0.042882 0.021748943
000160 44 b2 8e 3d 5d 64 e1 bd f3 f7 05 be d2 be 0d bd
       0.06967595 -0.11005471 -0.13082866 -0.03460581
000170 19 32 a3 bd 85 a2 c5 bd d5 56 df bd 34 33 79 3c
       -0.0796854 -0.09650139 -0.10905234 0.015209962
000180 39 23 32 bc 07 64 94 3d 89 92 26 bd 7a fc 54 bd
       -0.010872656 0.07245641 -0.04066709 -0.051998593
000190 8e 07 e5 bd 9b bc 3a 3d aa 27 cc bd 5e 1a 1f bd
       -0.111830816 0.045590024 -0.09968503 -0.038843505
0001a0 49 3d f1 3d 2a 06 ab 3d e3 3b d7 bd 8c 15 a7 bd
       0.11779267 0.08350785 -0.10509469 -0.081584066
0001b0 9a d6 e7 3d eb 7f 8d 3d 88 4a 7f bb 57 bf 02 bd
       0.11320229 0.06909164 -0.0038954336 -0.031920757
0001c0 bd 1f 15 3e d3 d6 d6 3d c6 b2 93 bd ba f3 c8 3b
       0.14562888 0.10490193 -0.07211833 0.00613257
0001d0 9c 6e f1 3d 08 83 e0 3d 94 9f 0a 3d 8c e3 17 be
       0.11788675 0.10962492 0.03384359 -0.14832896
0001e0 25 15 8f bd cc d8 c2 3b 88 48 16 3c 67 5d ec 3d
       -0.06986455 0.0059462544 0.009172566 0.115412526
0001f0 d2 70 f8 3d d4 4e 31 3d 1e fa 2f 3d 5b 21 aa bd
       0.12130894 0.043288067 0.04296314 -0.08307143
000200 d7 f0 ed bd 29 d6 cb bd 5a cc c9 3d 7f 0b e5 3d
       -0.11618202 -0.09952957 0.0985343 0.11183833
000210 5d 6f 3b 3c 35 ff f3 bd 6f 10 66 3d 83 e5 ea 3d
       0.011440125 -0.11913911 0.056168016 0.11469557
000220 66 48 04 3e af 4e 1b 3e 02 f7 96 3d fb 70 8e bd
       0.12918243 0.15166734 0.07371332 -0.06955143
000230 ac 75 12 bd f5 18 1c 3e 72 20 0e 3e ed b6 10 be
       -0.035756752 0.15243895 0.13879564 -0.1413228
000240 72 f8 4b bd be 5d 13 3e 13 2a e4 3b 4a 8e a4 bc
       -0.049797483 0.14391229 0.0069630235 -0.02008738
000250 f9 d0 12 3e 5d 05 1c 3e 6a a1 7f 3c 43 0d c5 bd
       0.14337529 0.15236421 0.015602449 -0.0962167
000260 4c 10 c6 bd f4 aa 50 bd 29 04 54 3d 08 4e 06 3e
       -0.09671077 -0.050944284 0.05176178 0.13115704
000270 6a 24 06 3e 17 26 05 be 7d cb ee 3d 91 76 66 bc
       0.13099828 -0.13002811 0.11659906 -0.014066354
000280 14 2d 7b 3d 6d c5 64 3d bc 78 f9 bd 49 5c 75 bd
       0.061322287 0.055852342 -0.121812314 -0.059902463
000290 a2 19 01 be 29 5e f0 bd ba ba 73 3d 92 25 24 bd
       -0.12607434 -0.117367096 0.05950425 -0.040074892
0002a0 67 52 07 be 59 9c 61 3d 94 1e 03 3e fc a5 f6 bd
       -0.13215028 0.055080745 0.12804633 -0.12043378
0002b0 f8 12 09 be d6 9d 06 be 15 23 05 be eb 2a a1 3d
       -0.13386142 -0.13146147 -0.13001664 0.07869514
0002c0 de 86 64 3d 2f 37 e6 3b 0f d5 ad bd 61 a4 8a 3c
       0.055792682 0.0070256214 -0.08487903 0.016924085
0002d0 4f 1e a5 bc 02 82 e7 3d 7d 76 04 bd 67 a5 a0 bc
       -0.020156054 0.11304094 -0.03233956 -0.01961012
0002e0 ac 22 a3 3d 3e cd 31 3d 3d 47 e5 3d e8 d6 92 3d
       0.079655975 0.043408625 0.11195228 0.07169896
0002f0 eb 5c 96 bd dc a0 d7 3c 25 8c 8d bd de 5e 56 3d
       -0.073419414 0.02632182 -0.06911496 0.052336566
000300 26 2e f7 bd a0 84 8a bd 84 ae 5a 3d 5e 9e 01 3e
       -0.12069349 -0.067635775 0.053389087 0.12658069
000310 89 5c f1 bc 87 27 17 3d e6 f7 61 bd 96 f9 1e 3c
       -0.02946307 0.03690293 -0.055168055 0.009703061
000320 66 0a c2 bd 6e 76 05 3e 23 ec 91 bc 8c f3 88 3b
       -0.094746396 0.13033459 -0.017812794 0.0041794237
000330 8c 19 19 3e a8 cf 88 3d ff a9 e6 3d 40 36 8a bd
       0.14951152 0.06680232 0.11262893 -0.067486286
000340 95 0a 29 bd 0b da 13 be 55 ff 02 be 68 ba 11 be
       -0.041269857 -0.14438646 -0.12792714 -0.14231265
000350 98 98 a2 bd ca b2 64 bc 9b 18 0a be 83 a8 b1 3d
       -0.07939261 -0.013958642 -0.13485949 0.08674719
000360 71 92 a7 bd a5 ba a1 3d 35 7d a4 bd 23 36 8c bc
       -0.08182228 0.07896928 -0.08031694 -0.017115658
000370 98 a9 b9 bc 6b bc 17 3e ca 7d 9c bd 77 db d0 3c
       -0.022663876 0.1481797 -0.0764118 0.025495274
000380 fe 4b 06 be 6f 7b cc 3a ad 53 92 3d 78 11 d4 3d
       -0.13114926 0.0015600751 0.07144866 0.103548944
000390 36 59 4f bc a8 ef 93 bd a8 74 be bd c5 5b 2e 3d
       -0.012655547 -0.07223445 -0.09299594 0.042567987
0003a0 d6 be 7e 3d 58 90 ec 3d 27 ad 87 3b 55 d0 fb bc
       0.062193714 0.11550969 0.0041405144 -0.030738989
0003b0 81 2d 0b be c1 e9 ab 3c 75 4a 0b be ba fc a6 bc
       -0.13591577 0.020985486 -0.13602622 -0.020384181
0003c0 7d 63 bf 3d 77 7e e0 bd de 08 41 bd e9 2f 00 bd
       0.09345148 -0.10961621 -0.047127597 -0.03129569
0003d0 69 88 cb bd 28 25 16 3e 64 22 33 bd 0d c8 d2 3d
       -0.099381275 0.14662611 -0.04373397 0.10292063
0003e0 55 17 7c bc 03 c1 8d bd be d4 10 be 6f 4f be bc
       -0.015386422 -0.0692158 -0.14143655 -0.023231236
0003f0 3e 08 0e be ad 5a 0d 3d 0b e7 0d bd e4 33 f7 3d
       -0.13870332 0.034510303 -0.034644168 0.12070444

in_proj_bias f4 [192]
000000 00 00 00 00 00 00 00 00 00 00 00 00 00 00 00 00
       0.0 0.0 0.0 0.0
000010 00 00 00 00 00 00 00 00 00 00 00 00 00 00 00 00
       0.0 0.0 0.0 0.0
000020 00 00 00 00 00 00 00 00 00 00 00 00 00 00 00 00
       0.0 0.0 0.0 0.0
000030 00 00 00 00 00 00 00 00 00 00 00 00 00 00 00 00
       0.0 0.0 0.0 0.0
000040 00 00 00 00 00 00 00 00 00 00 00 00 00 00 00 00
       0.0 0.0 0.0 0.0
000050 00 00 00 00 00 00 00 00 00 00 00 00 00 00 00 00
       0.0 0.0 0.0 0.0
000060 00 00 00 00 00 00 00 00 00 00 00 00 00 00 00 00
       0.0 0.0 0.0 0.0
000070 00 00 00 00 00 00 00 00 00 00 00 00 00 00 00 00
       0.0 0.0 0.0 0.0
000080 00 00 00 00 00 00 00 00 00 00 00 00 00 00 00 00
       0.0 0.0 0.0 0.0
000090 00 00 00 00 00 00 00 00 00 00 00 00 00 00 00 00
       0.0 0.0 0.0 0.0
0000a0 00 00 00 00 00 00 00 00 00 00 00 00 00 00 00 00
       0.0 0.0 0.0 0.0
0000b0 00 00 00 00 00 00 00 00 00 00 00 00 00 00 00 00
       0.0 0.0 0.0 0.0
0000c0 00 00 00 00 00 00 00 00 00 00 00 00 00 00 00 00
       0.0 0.0 0.0 0.0
0000d0 00 00 00 00 00 00 00 00 00 00 00 00 00 00 00 00
       0.0 0.0 0.0 0.0
0000e0 00 00 00 00 00 00 00 00 00 00 00 00 00 00 00 00
       0.0 0.0 0.0 0.0
0000f0 00 00 00 00 00 00 00 00 00 00 00 00 00 00 00 00
       0.0 0.0 0.0 0.0
000100 00 00 00 00 00 00 00 00 00 00 00 00 00 00 00 00
       0.0 0.0 0.0 0.0
000110 00 00 00 00 00 00 00 00 00 00 00 00 00 00 00 00
       0.0 0.0 0.0 0.0
000120 00 00 00 00 00 00 00 00 00 00 00 00 00 00 00 00
       0.0 0.0 0.0 0.0
000130 00 00 00 00 00 00 00 00 00 00 00 00 00 00 00 00
       0.0 0.0 0.0 0.0
000140 00 00 00 00 00 00 00 00 00 00 00 00 00 00 00 00
       0.0 0.0 0.0 0.0
000150 00 00 00 00 00 00 00 00 00 00 00 00 00 00 00 00
       0.0 0.0 0.0 0.0
000160 00 00 00 00 00 00 00 00 00 00 00 00 00 00 00 00
       0.0 0.0 0.0 0.0
000170 00 00 00 00 00 00 00 00 00 00 00 00 00 00 00 00
       0.0 0.0 0.0 0.0
000180 00 00 00 00 00 00 00 00 00 00 00 00 00 00 00 00
       0.0 0.0 0.0 0.0
000190 00 00 00 00 00 00 00 00 00 00 00 00 00 00 00 00
       0.0 0.0 0.0 0.0
0001a0 00 00 00 00 00 00 00 00 00 00 00 00 00 00 00 00
       0.0 0.0 0.0 0.0
0001b0 00 00 00 00 00 00 00 00 00 00 00 00 00 00 00 00
       0.0 0.0 0.0 0.0
0001c0 00 00 00 00 00 00 00 00 00 00 00 00 00 00 00 00
       0.0 0.0 0.0 0.0
0001d0 00 00 00 00 00 00 00 00 00 00 00 00 00 00 00 00
       0.0 0.0 0.0 0.0
0001e0 00 00 00 00 00 00 00 00 00 00 00 00 00 00 00 00
       0.0 0.0 0.0 0.0
0001f0 00 00 00 00 00 00 00 00 00 00 00 00 00 00 00 00
       0.0 0.0 0.0 0.0
000200 00 00 00 00 00 00 00 00 00 00 00 00 00 00 00 00
       0.0 0.0 0.0 0.0
000210 00 00 00 00 00 00 00 00 00 00 00 00 00 00 00 00
       0.0 0.0 0.0 0.0
000220 00 00 00 00 00 00 00 00 00 00 00 00 00 00 00 00
       0.0 0.0 0.0 0.0
000230 00 00 00 00 00 00 00 00 00 00 00 00 00 00 00 00
       0.0 0.0 0.0 0.0
000240 00 00 00 00 00 00 00 00 00 00 00 00 00 00 00 00
       0.0 0.0 0.0 0.0
000250 00 00 00 00 00 00 00 00 00 00 00 00 00 00 00 00
       0.0 0.0 0.0 0.0
000260 00 00 00 00 00 00 00 00 00 00 00 00 00 00 00 00
       0.0 0.0 0.0 0.0
000270 00 00 00 00 00 00 00 00 00 00 00 00 00 00 00 00
       0.0 0.0 0.0 0.0
000280 00 00 00 00 00 00 00 00 00 00 00 00 00 00 00 00
       0.0 0.0 0.0 0.0
000290 00 00 00 00 00 00 00 00 00 00 00 00 00 00 00 00
       0.0 0.0 0.0 0.0
0002a0 00 00 00 00 00 00 00 00 00 00 00 00 00 00 00 00
       0.0 0.0 0.0 0.0
0002b0 00 00 00 00 00 00 00 00 00 00 00 00 00 00 00 00
       0.0 0.0 0.0 0.0
0002c0 00 00 00 00 00 00 00 00 00 00 00 00 00 00 00 00
       0.0 0.0 0.0 0.0
0002d0 00 00 00 00 00 00 00 00 00 00 00 00 00 00 00 00
       0.0 0.0 0.0 0.0
0002e0 00 00 00 00 00 00 00 00 00 00 00 00 00 00 00 00
       0.0 0.0 0.0 0.0
0002f0 00 00 00 00 00 00 00 00 00 00 00 00 00 00 00 00
       0.0 0.0 0.0 0.0

weight f4 [64, 64]
000000 c8 3c f7 3c 58 1a dd 3c b4 dc 46 bd 80 4d 3b 3d
       0.03018035 0.0269901 -0.048550323 0.045728207
000010 bc 86 c3 3d 40 a2 7d bc 1c 4a e4 3d 8e a2 cc bd
       0.09547183 -0.015480578 0.11146948 -0.09991942
000020 50 60 dd 3c bc f5 79 3d 70 f8 2b bc f4 29 0c 3d
       0.027023464 0.061025366 -0.010496244 0.034219697
000030 28 c1 b1 3d 60 f6 bf 3d 80 57 f0 3a c0 c5 b2 bd
       0.0867942 0.09373164 0.0018336624 -0.08729124
000040 c8 0c e6 3c 16 c1 e9 3d c2 4e f8 3d 18 48 b5 bc
       0.028082266 0.11413781 0.12124397 -0.022129104
000050 2e de d5 3d 08 fb ff bd d0 b6 c2 bc 1c 47 88 3d
       0.10442768 -0.12499052 -0.023768812 0.06654188
000060 a8 f1 b2 3d b0 ba 0a bd 72 0c 8f 3d 38 7c 82 3c
       0.087374985 -0.033869445 0.06984796 0.015928373
000070 3a 60 eb 3d 06 3e c6 bd ca 20 ab bd 20 c2 d6 3d
       0.11492963 -0.09679799 -0.083558634 0.10486245
000080 1c 15 7e bd 14 0b 0e 3d 84 5e 95 3d 38 b9 21 bd
       -0.06203185 0.034678534 0.07293418 -0.03948328
000090 84 5e c0 3d 2e 94 f5 bd 90 b0 f7 bd a8 87 44 bd
       0.093930274 -0.11991154 -0.120942235 -0.047980934
0000a0 e4 d4 a8 bd a0 03 8b bc d8 5e e8 3d 90 6a c6 bd
       -0.08243731 -0.016969502 0.11346215 -0.09688294
0000b0 2c ec 92 3d 2e 16 fb 3d e4 ef 7b bd de 3a bf 3d
       0.071739525 0.1226009 -0.061508074 0.093374
0000c0 b4 3b 9c bd 60 85 ac 3c 1e 33 e2 bd 00 9c 4a 39
       -0.07628575 0.021059692 -0.11044906 0.00019322336
0000d0 58 f3 73 bd 58 07 96 bc b8 db 27 bd d0 48 96 3d
       -0.059558243 -0.018314049 -0.040981025 0.07338107
0000e0 e8 0b 65 bd a8 d0 e7 3d 12 e1 ba 3d a8 34 0c 3d
       -0.055919558 0.11319095 0.0912496 0.034229904
0000f0 40 1a 64 3d 96 b1 a9 3d 2c d5 6b bd 1a 83 81 bd
       0.055689096 0.08285825 -0.057576343 -0.06323834
000100 a8 49 ab bc 28 ea c5 3d 90 59 fb bd f6 8f bd bd
       -0.020909145 0.096638024 -0.12272942 -0.09255974
000110 c6 cd 88 3d a8 1d b4 3c 88 7c eb bd c8 24 1e bd
       0.06679873 0.021986797 -0.11498362 -0.038609296
000120 94 1b ef bd 8c 7f cc 3d d6 70 97 bd 10 5e 03 bc
       -0.11675182 0.09985265 -0.073945686 -0.008018032
000130 36 31 8d bd 5e 39 9f bd 20 de ce 3d e8 f8 c5 bc
       -0.06894152 -0.07774614 0.10100961 -0.02416654
000140 e6 1f c1 bd b8 c2 d0 bd 38 17 f7 3d 6c 92 ed 3d
       -0.09429912 -0.1019339 0.120649755 0.116001934
000150 96 0c cb bd ec 3e 52 bd a6 02 e7 3d 14 a8 1b 3d
       -0.0991451 -0.05132954 0.11279802 0.03800209
000160 36 a9 b8 bd 3e 2d b5 3d f4 5a da 3d f4 60 98 3d
       -0.090166494 0.0884652 0.10661879 0.07440367
000170 40 30 66 3b 58 03 0f bd 00 f3 13 bd e8 5a e3 bd
       0.0035123974 -0.0349153 -0.036120415 -0.11101323
000180 54 f7 9c bd 82 c0 96 bd f8 21 f9 bd 90 13 77 3d
       -0.076643616 -0.07360937 -0.12164682 0.06032139
000190 9c 25 e0 bd b4 ff a4 bd a0 68 fc 3c 6c b5 fe bd
       -0.109446734 -0.08056584 0.030811608 -0.12436947
0001a0 40 f7 5f bb 5c 4d aa bd 22 40 b6 bd 34 05 c9 3d
       -0.0034174472 -0.083155364 -0.08898951 0.098154455
0001b0 cc 05 98 3d f0 fe 78 3c 80 74 3c 3c fa 58 fc bd
       0.07422981 0.015197501 0.011502385 -0.123216584
0001c0 5e 72 cc 3d fc 74 29 3d 18 f8 a4 3c 80 a7 e1 bd
       0.09982751 0.04137133 0.020137832 -0.11018276
0001d0 26 25 c2 3d a6 9b b7 3d 2e e1 a3 bd 6a 00 c8 bd
       0.09479742 0.089652345 -0.08001934 -0.09765704
0001e0 62 eb a9 3d 0a 04 ed bd 60 a2 48 bd 18 34 db 3d
       0.08296849 -0.11573036 -0.048982978 0.107032955
0001f0 28 5e f5 bc 84 bd 39 3d b4 cb 5f 3d 90 27 86 3c
       -0.029952124 0.04534675 0.054637626 0.016376287
000200 60 f5 a4 bc dc 9f 50 3d 60 c0 2a 3c a0 1d 9d bb
       -0.020136535 0.050933704 0.010421842 -0.0047947913
000210 2c b5 40 bd 70 17 22 bd 6e a8 f2 3d 08 6b bc 3c
       -0.04704778 -0.039573133 0.11848532 0.023000255
000220 20 8e 17 bd 2c eb 9c bd 48 d9 2a bd a4 f0 8f 3d
       -0.037000775 -0.07662043 -0.04171112 0.070283204
000230 4c e9 da 3d f8 ef 01 3d a0 dc 9e bb 38 03 91 bd
       0.10689029 0.031722993 -0.004848078 -0.07080692
000240 b8 95 fa 3d 60 0d 80 3c fc d6 04 bd f2 63 de bd
       0.12235588 0.015631378 -0.032431588 -0.10858907
000250 f0 57 f3 bd 5e a4 b6 3d f0 e7 4d 3c 90 1d ac 3d
       -0.11882007 0.08918069 0.012567505 0.08404076
000260 cc c7 9a 3d a0 e0 72 3c e0 7a 69 bc 4c 01 b6 3d
       0.075576395 0.014824063 -0.014250487 0.08886966
000270 e6 4f a4 3d ee 0a e5 3d 54 a9 88 bd ba 87 93 bd
       0.08023052 0.11183725 -0.06672922 -0.07203622
000280 d0 67 91 3c 64 c8 24 3d 10 4d 4d 3d a0 41 02 3c
       0.017749697 0.04023017 0.05012232 0.0079502165
000290 ac 72 27 bd 88 c3 36 bd 26 eb a8 3d e4 10 2a bd
       -0.040880844 -0.044620067 0.08247976 -0.041520014
0002a0 10 26 96 bd 98 2d ad bc 90 21 0f bc 00 db c7 ba
       -0.073314786 -0.021139905 -0.008736029 -0.0015247762
0002b0 4c 5e 67 bd 38 50 61 bd 8a cc 9b bd a0 e3 cc bb
       -0.056486413 -0.055008143 -0.07607372 -0.006252721
0002c0 a0 3e 0c bc ce ea 9b 3d 00 d1 f2 3a 60 4e 90 3d
       -0.008559853 0.07613145 0.0018525422 0.07046199
0002d0 f2 12 9a bd 60 ce a6 bc 50 9d ad 3c 28 c7 94 3d
       -0.07523145 -0.02036208 0.021193177 0.072645485
0002e0 84 6c b2 3d 8e 6f 8c 3d 24 72 c1 bd 00 49 70 ba
       0.08712104 0.06857215 -0.09445599 -0.0009166151
0002f0 d0 dd f2 bc 06 88 a8 bd 70 dd 9b bd 1e 9e ff 3d
       -0.029646784 -0.082290694 -0.07610595 0.1248133
000300 e0 fd e2 3d 40 2e f4 3d ce 1f b4 3d 04 c9 93 bd
       0.11083579 0.11922884 0.08795129 -0.07216075
000310 d0 dd 11 3c 5c ae c5 bd 40 08 85 bb 76 07 c1 3d
       0.008902982 -0.09652397 -0.0040598214 0.09425251
000320 46 45 d3 3d 64 51 f9 bd dc 90 ca bd e0 0c 4f bd
       0.10315947 -0.12173727 -0.09890911 -0.050549388
000330 c8 fe ca bd 58 06 a0 bd 24 0e e6 bd 12 e1 81 bd
       -0.09911877 -0.0781371 -0.11233166 -0.06341757
000340 08 42 05 bd f2 46 ce 3d 18 ee 99 3d 00 eb 19 bd
       -0.032533675 0.100721255 0.07516116 -0.03757763
000350 6a a1 bf 3d 68 a2 e4 bc 96 c9 d5 bd e4 85 24 3d
       0.09356959 -0.027909473 -0.1043884 0.04016675
000360 58 a5 a7 3c 70 41 8e 3c 7c 0b 8d bd e6 a6 de 3d
       0.020464584 0.017365187 -0.06886956 0.10871677
000370 76 15 d8 3d 00 1e 5b ba 10 f4 ae 3d b0 25 52 bd
       0.10550968 -0.00083586574 0.08542645 -0.051305473
000380 62 78 ca bd 26 69 d6 bd 40 85 70 3b 20 9d 60 bc
       -0.098862424 -0.10469274 0.0036700517 -0.0137093365
000390 ec 22 97 bd 02 8f cd bd ba 1b 9a bd d4 d9 be bd
       -0.07379708 -0.10037042 -0.0752482 -0.09318891
0003a0 64 d5 aa 3d b0 58 81 bd 3a 5b b5 3d d8 ea 6f bd
       0.08341482 -0.06315744 0.08855291 -0.058573574
0003b0 9e 7b 8c bd 20 2f ee bd 3a cb ff bd f0 e1 91 bd
       -0.068595156 -0.11630082 -0.12489934 -0.07123172
0003c0 a8 c0 cc 3d e2 0d 9f 3d 70 b9 64 3d 6e 10 ce bd
       0.09997684 0.0776632 0.05584091 -0.100617275
0003d0 cc a3 5b 3d 18 d9 e0 bc b4 10 c2 bd 58 01 87 3d
       0.053623006 -0.027447268 -0.09475842 0.06592053
0003e0 d4 d8 f2 bd 6e 1e 84 bd 54 27 5e bd f0 b7 6e 3c
       -0.11857763 -0.064511165 -0.054236725 0.014570221
0003f0 aa 34 c1 3d 50 6b 63 3d 78 c7 6e 3d 76 58 cf bd
       0.09433873 0.055522263 0.058295697 -0.101242945

bias f4 [64]
000000 00 00 00 00 00 00 00 00 00 00 00 00 00 00 00 00
       0.0 0.0 0.0 0.0
000010 00 00 00 00 00 00 00 00 00 00 00 00 00 00 00 00
       0.0 0.0 0.0 0.0
000020 00 00 00 00 00 00 00 00 00 00 00 00 00 00 00 00
       0.0 0.0 0.0 0.0
000030 00 00 00 00 00 00 00 00 00 00 00 00 00 00 00 00
       0.0 0.0 0.0 0.0
000040 00 00 00 00 00 00 00 00 00 00 00 00 00 00 00 00
       0.0 0.0 0.0 0.0
000050 00 00 00 00 00 00 00 00 00 00 00 00 00 00 00 00
       0.0 0.0 0.0 0.0
000060 00 00 00 00 00 00 00 00 00 00 00 00 00 00 00 00
       0.0 0.0 0.0 0.0
000070 00 00 00 00 00 00 00 00 00 00 00 00 00 00 00 00
       0.0 0.0 0.0 0.0
000080 00 00 00 00 00 00 00 00 00 00 00 00 00 00 00 00
       0.0 0.0 0.0 0.0
000090 00 00 00 00 00 00 00 00 00 00 00 00 00 00 00 00
       0.0 0.0 0.0 0.0
0000a0 00 00 00 00 00 00 00 00 00 00 00 00 00 00 00 00
       0.0 0.0 0.0 0.0
0000b0 00 00 00 00 00 00 00 00 00 00 00 00 00 00 00 00
       0.0 0.0 0.0 0.0
0000c0 00 00 00 00 00 00 00 00 00 00 00 00 00 00 00 00
       0.0 0.0 0.0 0.0
0000d0 00 00 00 00 00 00 00 00 00 00 00 00 00 00 00 00
       0.0 0.0 0.0 0.0
0000e0 00 00 00 00 00 00 00 00 00 00 00 00 00 00 00 00
       0.0 0.0 0.0 0.0
0000f0 00 00 00 00 00 00 00 00 00 00 00 00 00 00 00 00
       0.0 0.0 0.0 0.0

weight f4 [64]
000000 50 a8 82 3f f7 e2 7f 3f 3e 7b 82 3f 1c 56 81 3f
       1.0207615 0.99955696 1.019386 1.0104403
000010 37 16 80 3f e1 7d 7e 3f 53 6a 7e 3f e2 b1 81 3f
       1.000678 0.99410826 0.9938099 1.013241
000020 c3 97 7f 3f cc ed 82 3f 6e 23 80 3f 37 22 7c 3f
       0.99840945 1.022882 1.0010812 0.9848971
000030 6a e6 7e 3f 8a a3 80 3f 95 c4 80 3f e8 5a 80 3f
       0.99570334 1.0049908 1.0059992 1.0027742
000040 9c 65 7f 3f 05 e0 7f 3f b3 60 80 3f 56 4c 80 3f
       0.9976442 0.999512 1.002951 1.0023296
000050 37 7d 80 3f 66 96 7f 3f 5a 5e 80 3f 19 16 7e 3f
       1.0038213 0.99838865 1.0028794 0.9925247
000060 c4 15 7f 3f ac f8 80 3f d2 b8 7f 3f 6c f4 7d 3f
       0.99642587 1.0075889 0.9989139 0.99201083
000070 47 b9 83 3f 7c 46 80 3f b4 55 79 3f c9 0b 80 3f
       1.0290917 1.002151 0.973964 1.0003597
000080 8c 31 7d 3f 37 8a 79 3f 43 ad 81 3f 7e 34 7e 3f
       0.9890373 0.97476524 1.0131 0.99298847
000090 81 31 80 3f db 4b 7e 3f 29 15 80 3f 38 94 7e 3f
       1.0015107 0.99334496 1.0006458 0.99444914
0000a0 f3 ff 7b 3f f7 4c 7f 3f e9 58 80 3f cd db 7b 3f
       0.9843742 0.99726814 1.0027133 0.98382264
0000b0 68 b1 80 3f 57 8c 80 3f 6d 7c 7c 3f 18 94 7e 3f
       1.005414 1.0042828 0.9862736 0.99444723
0000c0 f9 12 82 3f 00 2d 7f 3f e8 ac 80 3f 0a 4d 80 3f
       1.016204 0.9967804 1.0052767 1.002351
0000d0 17 62 7f 3f 53 0d 82 3f 0c f1 7e 3f 85 0d 7f 3f
       0.9975905 1.0160316 0.9958656 0.99630004
0000e0 b0 ef 80 3f 19 12 82 3f 46 50 7f 3f 07 28 7e 3f
       1.0073147 1.0161773 0.9973186 0.99279827
0000f0 3b 3b 7e 3f 13 d2 7f 3f 84 8d 81 3f 9a 36 7f 3f
       0.9930913 0.9992992 1.0121312 0.9969269

bias f4 [64]
000000 33 29 32 bb ea 07 c7 3b f6 fc 01 3c d1 7e 74 3c
       -0.0027185201 0.0060739415 0.007933846 0.0149228135
000010 e7 dd 3d bc c6 71 bb bc 05 73 d2 bb 5e 51 98 3c
       -0.01158855 -0.0228814 -0.006422403 0.018593486
000020 3b 36 32 bc 43 ae 90 bb f6 26 3b bc 78 4d 78 3b
       -0.010877187 -0.004415305 -0.011422863 0.0037887972
000030 41 ab 06 3c 49 8a 9e 39 9c a0 c8 b9 11 ef 1a bc
       0.008219541 0.0003023914 -0.00038266636 -0.009456412
000040 0a 03 3f bc 19 da 59 bc 95 c9 1d bc df 23 a0 bb
       -0.011658439 -0.013296627 -0.00963058 -0.0048870887
000050 1d a6 d5 3b 2c e2 d6 ba d0 8e 67 bc 91 12 76 ba
       0.0065200464 -0.0016394309 -0.01413317 -0.0009386922
000060 2b 9b 70 bb e3 01 99 bb 47 e6 a0 3a 34 ab 19 bc
       -0.003671358 -0.0046694144 0.0012275659 -0.009379197
000070 5c 9b a6 3c 1c 7f d0 3b a8 7b 00 bb 02 6f 07 3c
       0.020337753 0.006362809 -0.0019604955 0.008266212
000080 65 67 86 bb 4c 2e 38 3c 99 34 19 3c ed 75 f1 3b
       -0.004101681 0.011241507 0.009350919 0.007368794
000090 8a 75 57 3b 1b 6d d5 3b a4 38 d6 3b 8a 78 59 3c
       0.0032876455 0.0065132505 0.006537514 0.013273368
0000a0 6f 2a 65 39 1f 3a 19 3c ec 01 42 3c 5c 09 41 3c
       0.0002185495 0.009352236 0.0118412785 0.011782017
0000b0 4f fc b2 3c b4 e6 c2 bb 93 70 19 ba 21 88 b8 bc
       0.021848826 -0.005947912 -0.00058532617 -0.022525849
0000c0 e1 4f 24 3c 8a 5f f7 bb 6d b4 c7 bc 45 f4 a5 3a
       0.01002881 -0.007549231 -0.024378026 0.0012661299
0000d0 c4 73 ba 3c 37 99 4d bc 15 03 d1 3a 68 76 13 bc
       0.02276028 -0.012548736 0.0015946353 -0.009000398
0000e0 84 de ff 3a 39 1d 0a 3c f0 44 62 bc f3 ad 11 bb
       0.0019521271 0.008429819 -0.013810381 -0.0022228926
0000f0 fa 85 15 ba 66 c3 8c 3c 75 f7 b3 3b 37 4e e7 3b
       -0.0005703863 0.017183017 0.0054921457 0.0070588845

running_mean f4 [64]
000000 5f a1 7f bc 42 19 d4 bc 38 ff 0b bc 07 2a 85 3c
       -0.015602439 -0.02589095 -0.008544736 0.016255392
000010 fa 81 39 3b 82 59 75 3b 9c 55 cb bb d2 e5 43 3c
       0.0028306232 0.0037437384 -0.006205274 0.011956649
000020 8f 2a 85 bc 8a 3d b5 bb 76 a9 a4 3c e3 93 6d 3c
       -0.016255645 -0.0055310177 0.020100337 0.014500591
000030 0e 73 5f bb 78 77 f7 3b fa 83 a4 3b 3e 4d 0d bc
       -0.0034095678 0.0075520836 0.0050206156 -0.008624373
000040 69 ed 5e bc df ee 16 bb 31 67 1f 3b 81 e1 43 bc
       -0.013606408 -0.0023030562 0.0024322981 -0.01195562
000050 e0 b5 5a bc b2 b5 3d 39 b3 0a 0b 3c bb d5 87 38
       -0.013349026 0.00018092131 0.008486438 6.477112e-05
000060 a3 ff 94 bc ee 3f 8a bb e6 14 c9 bb 8a 5e 71 bb
       -0.018188303 -0.004219047 -0.0061365245 -0.0036830031
000070 e7 9b a4 bc 13 cf 76 3c e8 22 10 3a 03 da 91 bc
       -0.020093871 0.015064019 0.00054983655 -0.017804151
000080 2c 49 9b 3a d1 b1 43 3c 65 c3 5b 3c cd 90 8c 3c
       0.0011847368 0.01194425 0.013413285 0.01715889
000090 60 66 8c 3c 61 fd 21 3c a1 a4 7e bc ad 1b ae 3b
       0.01713866 0.00988707 -0.01554218 0.005313358
0000a0 74 d4 6a bc c7 cd 8b 3b 19 30 0b 3a a9 59 9c 3c
       -0.014332879 0.004266474 0.00053095963 0.019085722
0000b0 87 39 42 3c 36 2e 83 3a 07 e7 6e bc fb 53 22 3a
       0.011854536 0.0010008279 -0.014581448 0.00061923236
0000c0 ed f0 92 3c a7 30 10 bc b5 3f f4 3c 0b e0 1d bc
       0.017937148 -0.008800662 0.029815534 -0.009635936
0000d0 7d 06 11 bc 58 fa fc 3b 91 3a 95 bb c6 d6 9b 3c
       -0.008851645 0.007720273 -0.004554101 0.01902331
0000e0 ad 64 1d bc 79 31 0a bc 8f 1f d6 3b e0 a3 69 bc
       -0.0096065225 -0.008434647 0.006534524 -0.014260262
0000f0 27 9b 02 39 a8 98 c8 bb 02 83 18 3b f0 b6 ce bb
       0.00012455565 -0.0061217137 0.0023271446 -0.006308429

running_var f4 [64]
000000 79 84 86 3f cc f5 80 3f 4f f8 85 3f 22 6a 83 3f
       1.0509177 1.0075011 1.0466403 1.0266764
000010 f1 90 81 3f 20 98 7f 3f 65 6b 7e 3f 51 a3 84 3f
       1.0122358 0.998415 0.9938262 1.036234
000020 17 95 80 3f 10 15 87 3f 6a b4 81 3f 49 21 7b 3f
       1.0045499 1.0553303 1.0133183 0.98097664
000030 9f d6 7f 3f dc 5b 82 3f 6c 9d 82 3f 3a c6 81 3f
       0.9993686 1.0184283 1.0204291 1.0138619
000040 c6 a6 80 3f 8c 1d 81 3f ed e8 81 3f 7f d9 81 3f
       1.0050895 1.0087142 1.0149208 1.01445
000050 74 1e 82 3f dd ca 80 3f 4f b2 81 3f 8b 60 7f 3f
       1.0165544 1.0061909 1.013254 0.9975669
000060 50 4e 80 3f 41 76 83 3f b9 99 80 3f d5 18 7e 3f
       1.0023899 1.0270463 1.0046912 0.9925664
000070 c9 40 88 3f 06 df 81 3f 6a 34 75 3f 5c 63 81 3f
       1.0644771 1.0146186 0.957831 1.0108447
000080 b7 90 7c 3f fc 2e 76 3f 48 c7 84 3f 77 08 7f 3f
       0.9865832 0.9616544 1.0373316 0.9962229
000090 72 d9 81 3f 33 c0 7e 3f 9c 46 81 3f 9a 5c 7f 3f
       1.0144484 0.9951202 1.0099673 0.99750674
0000a0 80 83 7a 3f b5 8d 80 3f 65 78 81 3f 9f c1 79 3f
       0.97856903 1.0043246 1.0114866 0.9756107
0000b0 96 01 83 3f 15 ff 81 3f 9e 50 7b 3f 54 c9 7f 3f
       1.0234859 1.015597 0.9816989 0.9991658
0000c0 b6 28 85 3f 3c aa 80 3f dc 75 82 3f 85 bd 81 3f
       1.0403049 1.0051951 1.0192218 1.0135962
0000d0 b1 b0 80 3f 4a 5d 85 3f 4f 7c 80 3f d4 31 80 3f
       1.0053922 1.0419095 1.0037936 1.0015206
0000e0 78 bd 82 3f cd 55 85 3f 69 93 80 3f 42 5f 7e 3f
       1.0214071 1.0416809 1.0044986 0.993641
0000f0 c1 59 7e 3f 44 d2 80 3f 44 73 84 3f 79 42 80 3f
       0.99355704 1.0064168 1.0347676 1.0020286

weight f4 [64, 64, 1]
000000 1c d2 81 3d d7 eb 9c bd e2 09 91 3c 6a b4 ca bd
       0.06338903 -0.076621704 0.017704908 -0.098976925
000010 e8 ef 1f bd fa cf f6 3d 88 56 23 3d 13 5a 30 3d
       -0.03904715 0.12051387 0.039877445 0.04305465
000020 1f ec b3 3d 06 ce 99 3d 05 d1 2f 3d 40 5d 7a 3d
       0.08785271 0.07509999 0.042923946 0.061124086
000030 d6 c8 d8 3c c2 3c d4 3d f7 30 9d 3d fb 51 ae 3d
       0.026462954 0.10363151 0.07675355 0.0851173
000040 b7 7a fb 3d 06 41 c8 bd 2f 07 d3 bd 16 c7 11 3d
       0.122792654 -0.09778027 -0.103041045 0.035590254
000050 c0 e7 56 bc 28 93 33 3c 01 c9 df 3c 16 23 9f 3d
       -0.013116777 0.010960378 0.027317526 0.07770364
000060 ff 19 85 bd 25 84 ba bc ec 7a ad 3d 70 19 6e bd
       -0.06499099 -0.02276809 0.08470711 -0.058129728
000070 5d c5 ef bc c0 64 68 3d c4 2b 6c bd 43 bc bd 3d
       -0.029268915 0.056736708 -0.057658926 0.09264424
000080 11 d8 71 bc da fa 87 bc d2 0e fb bd 12 3e 06 bd
       -0.014760987 -0.016599108 -0.12258686 -0.03277404
000090 be e7 a2 3d 3a eb a5 bd 20 6a f4 3d 38 70 b6 3d
       0.079543576 -0.081015065 0.11934304 0.08908123
0000a0 a0 c7 97 bc ba be 8e 3d 96 fb 69 bd 61 97 8a bd
       -0.018527806 0.06969972 -0.057124697 -0.067671545
0000b0 9b 1d 7c bd 85 91 22 3d 2b b4 df 3d a0 36 10 3d
       -0.06155167 0.03968956 0.10923036 0.035208344
0000c0 02 f5 cd bd 70 81 9c bc 8c 94 ae bd b0 b8 de bd
       -0.10056497 -0.01910469 -0.08524427 -0.1087507
0000d0 74 d2 bc 3d 79 cc be 3d f8 06 12 bd 21 8e 51 3d
       0.09219828 0.09316344 -0.035651177 0.051160935
0000e0 c4 b7 dc 3d e6 0a 8f bd a5 b1 c6 bd b6 6a 83 3d
       0.10777238 -0.069845006 -0.09701852 0.06416838
0000f0 35 36 8c bc 49 fc 09 bc eb a7 db bd 4c f7 6e 39
       -0.017115692 -0.008421966 -0.10725387 0.00022789574
000100 68 f2 24 bc 84 b7 c6 bd 15 a4 91 bd 21 09 9a bc
       -0.01006756 -0.097029716 -0.07111374 -0.018803181
000110 d6 e9 16 3c 30 33 65 3d c0 f5 23 bd 51 5c e3 bc
       0.009211024 0.05595702 -0.040029287 -0.02775398
000120 ad 54 99 bc 49 d8 e9 bd 16 b4 c1 3d e7 aa 74 3b
       -0.018717134 -0.11418206 0.09458177 0.003733331
000130 5c b2 bf 3d 1b 1c 25 3a 2a cc ff bc 76 83 c8 3d
       0.09360191 0.00062984385 -0.031225283 0.09790699
000140 c0 bd dd 3d 33 fe 37 bd c2 47 4c bb 17 0d e7 3c
       0.108272076 -0.044920158 -0.00311707 0.028204484
000150 c1 84 d5 bc 10 9f 1c 3b 76 16 85 3c ad 64 1e bd
       -0.026064279 0.002389852 0.016246062 -0.03867023
000160 49 65 a1 3d e3 f4 d1 3d 2c 2d ee bd 27 65 cb 3c
       0.07880647 0.102517866 -0.116297096 0.024828507
000170 df f9 6c bd 30 b5 e8 bc b1 2c f0 bd 5c e6 71 bd
       -0.057855483 -0.02840671 -0.11727274 -0.05905758
000180 e3 21 a2 3d da 76 19 3d 3a d1 4b 3d d3 7f d2 3d
       0.0791662 0.03746686 0.04976008 0.10278287
000190 2e 6d 01 3d a8 7a e0 3d bf d1 20 bd 40 56 ce 3d
       0.031598262 0.10960895 -0.03926253 0.10075045
0001a0 7f b5 2f bc 54 c7 8f 3c e4 2d 88 bd 33 ba a6 bd
       -0.010724424 0.017551102 -0.06649378 -0.081409834
0001b0 3f 37 19 bd 3c 4e f7 bd cc 37 f7 3d 33 9b 75 bd
       -0.037406202 -0.12075469 0.12071189 -0.059962463
0001c0 d0 3d 22 3d f1 e2 51 3d b3 be bb 3d c7 ab 0f bd
       0.03960973 0.05124182 0.09167232 -0.03507593
0001d0 dd bc 84 bd 19 c0 92 3d af 2e 8f bd ac c4 8e bd
       -0.06481335 0.07165546 -0.06991326 -0.06971106
0001e0 43 1d 5a bd cb 84 5e bd e8 aa b5 3d 3d fa 60 bd
       -0.053250562 -0.05432586 0.088704884 -0.054926146
0001f0 0e 37 12 bd 87 57 ad bd 3e 96 81 bd 32 aa ed bd
       -0.035697035 -0.0846396 -0.063274845 -0.11604728
000200 75 ef 9b 3d b6 59 04 bd 40 9f 73 3d f5 b2 d1 bd
       0.07614032 -0.032312118 0.059478045 -0.102392115
000210 74 78 03 3d 9d 35 04 ba a4 74 8f bb 3e 8d e1 bd
       0.032097295 -0.00050433894 -0.0043779183 -0.11013268
000220 01 aa f3 3d 8f 41 a3 3d ec 41 6f bc 88 64 2e bd
       0.1189766 0.07971489 -0.014603119 -0.042576343
000230 22 e2 93 3d c7 c9 2f bd d5 a2 62 bd d1 ce 84 bc
       0.07220866 -0.04291704 -0.05533107 -0.016211899
000240 1d 8b 22 3d fd 42 09 3e 9c f9 ca bc 7d 8b 2a 3d
       0.03968345 0.1340446 -0.024777226 0.041636933
000250 97 c9 0c be 23 4a c6 3d b7 64 af 3b aa 86 b2 bd
       -0.13748775 0.09682109 0.0053525823 -0.087170914
000260 b9 2d db 3d 39 78 8f bd 87 07 8e 3b 9c 98 ff 3d
       0.1070208 -0.070053525 0.0043343934 0.1248028
000270 a7 7f 9a bd bb 56 8e bd 63 33 82 3d da b1 b9 3d
       -0.07543879 -0.06950136 0.063574575 0.090671256
000280 c3 9b 63 bd 57 14 a2 bd d6 54 05 be b0 2d b1 3d
       -0.055568468 -0.07914036 -0.13020644 0.08651292
000290 49 5f eb 3c 7d 55 e8 3c cf 43 9c bd 1d 14 6c 3d
       0.028731959 0.028361076 -0.07630121 0.05763637
0002a0 d7 af 95 3d 97 4a ca 3d ac 8c 7a 3d b6 05 32 3d
       0.073089294 0.09877508 0.06116931 0.043462478
0002b0 3e 6d b6 bc f4 31 30 bd b0 79 6a bd 4c ff a0 bd
       -0.022268888 -0.04301639 -0.057244956 -0.07861194
0002c0 e3 2e a6 bd f2 b0 d6 3d dc 2a be bc 33 ea e3 bd
       -0.08114412 0.104829684 -0.023213796 -0.11128654
0002d0 86 49 2b 3d 1d 51 07 3e b6 6f 5b 3d 52 0f 93 bd
       0.041818164 0.13214536 0.053573333 -0.071806565
0002e0 d3 14 fa bc b5 9e a5 bd fe c6 dc 3d dd 3f d2 bd
       -0.030527508 -0.080869116 0.10780142 -0.10266087
0002f0 69 34 a5 3c 95 f5 24 bd 05 b1 d1 3d b7 08 dd bc
       0.020166593 -0.040273268 0.10238842 -0.026981695
000300 0e a4 b6 3d 7a 85 0b be 4e 98 2d bc f6 87 dc 3d
       0.0891801 -0.13625136 -0.010595394 0.1076812
000310 a5 d5 3f bd f7 e4 83 3d 51 15 da 3d 25 1a e3 bd
       -0.046834607 0.06440156 0.10648597 -0.11088971
000320 3a 8b 6b bc 04 a0 3b bd 4f 07 69 3d 36 ba 62 bd
       -0.014376456 -0.0458069 0.056891736 -0.055353366
000330 2a 87 a7 3c 32 4f 83 3c 8b 47 73 bd 3e 58 de 3d
       0.020450193 0.016028974 -0.0593944 0.108566746
000340 81 e9 52 bd 35 2f 2e 3d f8 d5 be bd f5 06 c7 3d
       -0.051492218 0.04252549 -0.09318155 0.09718124
000350 48 d8 4f 3d e1 3d 0f 3c 60 69 31 bd c9 19 cf 3c
       0.05074337 0.00874278 -0.043313384 0.02528085
000360 8e 8e e0 3b a4 44 b3 3c 4c 96 62 3d 5d 85 ef bd
       0.0068529313 0.021883316 0.055319116 -0.11695359
000370 c6 f5 f2 3d 78 6c 52 bd 80 f3 46 bd 58 4d 42 bd
       0.11863284 -0.051372975 -0.048572063 -0.047437042
000380 18 2e 97 3d a8 a5 70 3d 9f a1 b5 3d 72 6a 3b bd
       0.073818386 0.058751732 0.088687174 -0.04575581
000390 ec 28 62 bc 1b 51 7b 3d 52 77 a2 3d de 9d 97 bd
       -0.013803702 0.061356645 0.07932915 -0.07403158
0003a0 ce 08 c0 3c 01 bb e3 bd 27 f1 ee 3d 27 c0 f6 bd
       0.023441698 -0.111196525 0.1166709 -0.12048369
0003b0 ad ba cc 3b 4e 3f 3f 39 1a d7 a9 bd de 55 f3 3d
       0.0062478394 0.00018238762 -0.082929805 0.11881612
0003c0 8e 2b c3 3d f4 24 c5 3d 85 52 9f 3d 97 90 96 3d
       0.09529792 0.09626189 0.07779411 0.07351797
0003d0 3b b0 cc 3d 87 27 13 bd 35 2b b2 bd 07 f3 8d bc
       0.09994551 -0.035926368 -0.08699647 -0.017327799
0003e0 1a 6c 5c bc 7a c6 2c 3d 4e 21 8a 3d 8a 18 1b 3d
       -0.013453508 0.04218147 0.067446336 0.0378652
0003f0 99 7a 60 bd ea 2c 6c 3c 40 b1 71 3d 25 53 88 3c
       -0.05480442 0.014415005 0.05900693 0.016641209
